models/turbofan_initial.pt (torch_old, 15345 bytes, 9 tensors)

weight f4 [24, 11]
000000 ed fa 9b 3d e2 f9 4e be 1b 38 04 be 3b 05 81 3e
       0.0761622 -0.2021251 -0.12912028 0.25199303
000010 d2 44 d3 be 97 f6 ce 3d f8 bb 10 be 96 e1 0e 3d
       -0.41263443 0.10105627 -0.14134204 0.034883104
000020 3d 12 38 be b9 a2 8a 3d 86 fa e4 3d 6b 82 80 3e
       -0.17975707 0.06769318 0.11180596 0.250995
000030 64 09 84 3e 8d 32 89 3d 91 eb 66 be 72 cb 3c 3e
       0.25788414 0.06699095 -0.22550799 0.18436983
000040 b3 61 1a 3e 66 68 95 3c 0e 2d d9 3e 7a ac c2 3d
       0.15076332 0.018238258 0.42417186 0.095055535
000050 78 2d 84 be 84 a5 c8 be fc 6a 06 be cf 0c 5b be
       -0.2581594 -0.39188778 -0.13126749 -0.21391605
000060 73 bc 4c be 4e b0 b5 3d 79 e4 a6 3d 8f f8 43 bb
       -0.19993763 0.08871518 0.081490465 -0.002990279
000070 6d 94 ef be e9 d5 e4 3c 97 18 14 bd fd f7 b7 3e
       -0.46792927 0.027934032 -0.036156263 0.35931388
000080 1f 88 8d 3e d6 8c c8 be b0 10 d6 be d7 98 84 be
       0.27642915 -0.3916995 -0.41809607 -0.25897858
000090 b3 b6 c0 3e 45 e8 34 be 78 4b 3e bd ba cb ae be
       0.37639388 -0.17666729 -0.04645869 -0.34139806
0000a0 de 67 16 3e f3 4e 92 be 71 29 b3 3e 99 53 9b 3d
       0.1468806 -0.28575858 0.34992555 0.07584304
0000b0 f6 5e 54 be e5 d0 c6 3d 06 cf 73 be 5a 25 20 3e
       -0.2073935 0.09707812 -0.23809442 0.15639248
0000c0 4a 4e 4f be c1 98 6c be 87 3a f7 be 5b 45 b5 be
       -0.20244709 -0.23105146 -0.4828684 -0.35404477
0000d0 ab ce 1c bc 8a a8 af bc 79 51 a4 3e 29 7e 0b 3f
       -0.009570758 -0.02144267 0.3209341 0.5448938
0000e0 3c db 32 3e 1e 0d a1 3d 0c 2d e1 bd ab ba e9 3e
       0.17466444 0.0786383 -0.1099492 0.4565023
0000f0 81 52 03 be 13 03 02 3e e0 60 c6 3e de a7 aa 3e
       -0.12824441 0.12696485 0.38745785 0.33331198
000100 cc 81 ad be de e0 90 be ff ac e1 bc 00 e2 33 3d
       -0.3388809 -0.2829656 -0.027548311 0.043916702
000110 72 33 5e be 35 f7 4d be 0c 60 17 3d c9 d2 33 be
       -0.21699312 -0.20113833 0.03695683 -0.17560877
000120 8a 0a a4 3d 24 fd 52 3d 81 f5 d6 3d 6d 17 02 3d
       0.08009823 0.051510945 0.10496045 0.03176062
000130 99 5f 08 bd 2e 33 49 3e 09 c5 cb be 8c 6d 0e 3e
       -0.033294294 0.1964843 -0.39798763 0.13908976
000140 b4 7c 58 be d1 f6 b2 be 7f cd b4 bd c5 d1 2b be
       -0.2114132 -0.3495393 -0.08828258 -0.1677924
000150 61 78 d9 3c a8 af 7b be 3a fc 9f be 30 23 7f 3e
       0.026546659 -0.24578726 -0.3124712 0.24915767
000160 96 f1 23 bb 07 0a d6 3d b6 fb f3 3c 6a 93 bd bd
       -0.0025015823 0.10451131 0.029783111 -0.092566326
000170 40 01 e1 bd bc ac 43 3d f5 50 2f be 2a 37 02 be
       -0.109865665 0.047772154 -0.17120726 -0.12716356
000180 41 a7 3d 3d 8a 6c 82 3d 0e f0 52 be 70 0d 51 be
       0.046302084 0.063683584 -0.20599386 -0.20415282
000190 a2 da 81 3e 5f 09 3a be d3 f2 93 3e b5 41 11 bc
       0.25362116 -0.18167637 0.28896198 -0.008865763
0001a0 a9 34 c4 be 70 2c df be 32 aa bc 3d 00 dd 18 be
       -0.38321427 -0.4358859 0.0921215 -0.14928055
0001b0 73 33 8d 3e 56 a3 16 3e cb 07 8d bd 07 dc 93 3d
       0.27578315 0.14710745 -0.06886252 0.07219701
0001c0 c9 92 a6 3d 32 c0 8f 3e 2f 95 4d be 81 ef 09 bc
       0.08133466 0.2807632 -0.2007644 -0.008418919
0001d0 5e d4 c3 3d 9d 9b 45 3c cc e3 22 bf 10 f7 c8 bd
       0.0956199 0.012061027 -0.6362884 -0.098127484
0001e0 24 eb 78 be 5b 89 01 bd 2e b9 ba 3e 0b 76 80 be
       -0.24308449 -0.031625133 0.36469406 -0.2509006
0001f0 b1 d2 87 3e c3 b8 a6 be 46 03 cb be 0a 1d 01 be
       0.26527932 -0.32562837 -0.39650935 -0.12608734
000200 46 e7 29 3e d2 1c 9d 3e 96 bd aa be 63 54 be bc
       0.1659213 0.3068605 -0.33347768 -0.023233598
000210 db 19 80 3e 60 f2 1f 3e 42 88 bb 3d 44 15 8a 3e
       0.25019726 0.15619802 0.091568485 0.2696935
000220 b5 7c 47 3e f6 42 05 be c1 94 c4 be 0d 92 1e bf
       0.19481166 -0.13013825 -0.3839474 -0.61941606
000230 82 c1 f7 be eb 93 9d bc b5 89 15 be 7b 4a 78 bd
       -0.48389822 -0.019235572 -0.14603312 -0.060617905
000240 eb 3a dc 3d ed 68 88 bd 10 c2 53 3e d1 88 d3 bd
       0.10753425 -0.06660638 0.20679498 -0.1032883
000250 c6 7a 06 3e 5a 04 5c 3e f5 fe 6f 3d ce 2e 58 3e
       0.13132772 0.21486035 0.058592755 0.21111605
000260 ae 0d fd bd fc d5 74 be e9 30 c9 be 83 05 a3 be
       -0.12356125 -0.23909754 -0.39295128 -0.31840143
000270 3a 3b 95 be 9f e6 92 bd e0 1b 10 3e 43 36 9a be
       -0.2914675 -0.07172894 0.14073133 -0.30119523
000280 0a ed e5 be d2 73 5f bc a4 52 44 bd f5 87 85 3e
       -0.4490741 -0.013638454 -0.047930375 0.2608029
000290 3a 21 0d be 8f 89 52 3d ef 8c 5e be 31 66 1e be
       -0.13782206 0.051400717 -0.2173345 -0.1546867
0002a0 65 80 39 be ff 2d 61 be 1b 68 9b be 4f 2c c8 bd
       -0.18115385 -0.21990202 -0.30352864 -0.09774076
0002b0 d4 c6 00 be 89 cc 9c bd 25 9d c8 3e 7e c2 aa 3e
       -0.12575847 -0.076561995 0.39182392 0.3335151
0002c0 80 e6 25 3e 08 cb f6 bc 8e b7 b5 be 9e 7b ae 3e
       0.1620121 -0.03012611 -0.35491604 0.34078687
0002d0 d3 f0 47 be b0 64 78 be 53 26 f8 be ce 78 83 be
       -0.19525461 -0.24257159 -0.4846674 -0.25678104
0002e0 b8 4b cf be 26 ab ad 3e f6 dc 48 be 19 c5 77 be
       -0.40487456 0.33919638 -0.1961554 -0.2419628
0002f0 9e 8f 14 39 b3 e3 52 be 44 48 19 3e 4f f2 56 be
       0.00014167881 -0.20594673 0.14968973 -0.20990871
000300 ff 4f 4a be b7 47 83 bd 3e 47 e0 3d c0 37 a7 be
       -0.19757079 -0.06410163 0.10951088 -0.3265972
000310 30 6d 15 3e 1c 85 f5 3d 08 5b 90 3e 96 46 5c be
       0.14592433 0.11988279 0.2819445 -0.21511301
000320 8c f8 e5 3c 5d 24 42 be e9 a1 a5 3d 0c f9 72 be
       0.028072618 -0.18959184 0.080875225 -0.23727816
000330 2b 6a ef 3d 3c 09 d5 bd 35 af 3a bd 2a 52 d5 bc
       0.11690172 -0.10402152 -0.045577247 -0.026040155
000340 e9 36 9e bc 64 ce 2f 3d 88 23 8c 3e d5 66 8f 3e
       -0.019313293 0.04292144 0.27370858 0.28008142
000350 97 45 b9 bb d1 02 a9 3d 65 65 9b 3e ae 7f ae 3e
       -0.0056540477 0.0825249 0.30350795 0.34081787
000360 2a 62 29 3e 8b 3e 40 be 44 9a 91 bd e8 78 88 3e
       0.16541353 -0.18773858 -0.07109502 0.26654744
000370 c3 40 b2 be c9 f2 d3 3e 10 98 c1 be 17 cb a4 be
       -0.34815034 0.41396168 -0.37811327 -0.32186195
000380 03 f4 a3 3c e7 c4 8a be 46 91 a8 bd fb e1 89 3e
       0.020013815 -0.2710335 -0.08230834 0.26930222
000390 3a bf 41 3e c3 5b 94 3e 7a 4c 4c be 30 aa 7f bc
       0.18920603 0.2897626 -0.19951048 -0.015604541
0003a0 1b 91 a6 3e ed c4 1e 3e 10 80 be be c0 f1 ab 3e
       0.32532582 0.15504809 -0.3720708 0.33582878
0003b0 fc e9 0a be 52 3f 2e 3e 33 c7 a7 3e 2e 43 f6 bd
       -0.1356582 0.17016342 0.32769164 -0.12024532
0003c0 f8 4f db be a2 71 1c be e7 c5 60 3d 88 0b ab bd
       -0.4283445 -0.15277722 0.054876234 -0.08351809
0003d0 3a f0 84 be 28 bd b4 3d f6 79 c5 be fb 3d c6 be
       -0.25964528 0.08825141 -0.3856961 -0.38719162
0003e0 4c d6 cf be 5a 32 0e 3e 23 78 1c 3e 24 8c 1b bd
       -0.40593183 0.13886395 0.15280204 -0.037975445
0003f0 ee b3 10 3c c6 6e 2b 3d 7a 49 2f bd 9a 93 3b be
       0.008831961 0.04185369 -0.042794682 -0.18318024

bias f4 [24]
000000 d4 df ea 3e 1e f2 12 be 93 cc 00 3f 25 69 c1 3d
       0.45873892 -0.14350173 0.50312155 0.09443883
000010 42 c0 24 3f cf 27 b5 bd bd 86 ee 3e 94 8b ea 3e
       0.6435586 -0.088454835 0.46587172 0.45809615
000020 b9 18 0c 3f cb d5 13 3f d5 70 9d 3e 55 22 89 3e
       0.54725224 0.577481 0.30750147 0.26784006
000030 a5 e1 f3 3c f0 04 f9 3e de 23 b1 3d 7d 4a bd 3e
       0.029770682 0.4863658 0.08649419 0.36970893
000040 97 2e 83 3e 2f d6 ba 3e 75 02 25 3f b3 7c 04 3f
       0.25621483 0.36491534 0.64456874 0.51752776
000050 8a 67 62 3e fd 13 45 bd cc dd 06 be db 7e 26 3f
       0.2210981 -0.048114765 -0.13170546 0.65037316

weight f4 [24, 24]
000000 c9 fd 0e 3e 4f 18 6e be eb eb 3b 3e ad a8 f4 bb
       0.13963999 -0.2325146 0.18351714 -0.007466397
000010 ce 6a a2 3e 37 c2 31 be 58 db 89 3e d6 d4 d7 3d
       0.3172211 -0.17359243 0.26925159 0.10538642
000020 e2 2d 12 3e 10 71 5f 3e 6e 8a f1 3d 13 74 fd 3d
       0.14275315 0.21820474 0.117939815 0.12375655
000030 00 2e 64 3e 17 71 23 3e 72 f7 5a 3e 12 fa cd 3d
       0.22283173 0.15961109 0.21383455 0.10057463
000040 46 a7 21 3e 8d 89 b8 3d 35 a1 a4 3d c3 52 ac 3e
       0.15786466 0.09010611 0.0803856 0.33656892
000050 15 b5 4a 3e ee c5 97 bc 60 db 16 3e f9 17 52 3e
       0.1979564 -0.018526997 0.14732122 0.20516957
000060 27 da 06 be 16 10 98 be 6b d0 23 3e 4a de 6a be
       -0.13169156 -0.29699773 0.15997474 -0.22936359
000070 cb 5d 2d bc f7 4f b6 bd 83 75 a5 3e 14 63 1f 3e
       -0.010581444 -0.08901971 0.32316217 0.15565139
000080 d0 76 21 3e 53 c8 86 3d c9 ba 2e 3e 0f ea a9 3d
       0.1576798 0.065811776 0.1706344 0.08296596
000090 89 97 85 3e 5d 26 33 3e 28 5f dd bd f7 50 50 3d
       0.26092175 0.17495103 -0.10809165 0.050858464
0000a0 f8 34 ba bd 63 e0 db bc f3 c6 a6 3e ff 4d 7d 3e
       -0.09092134 -0.026840394 0.3257366 0.24736784
0000b0 27 ec 84 3e 8e d5 8f be d1 ee ae 3c 71 82 12 3e
       0.2596142 -0.28092617 0.02135411 0.14307572
0000c0 e1 9d a5 bd 57 32 73 be 85 ae 71 3d 20 a1 06 bc
       -0.08086754 -0.23749672 0.059004325 -0.008217126
0000d0 23 f0 80 bd 91 60 8a be d9 f4 44 3d 4d 59 7d 3e
       -0.062958024 -0.270268 0.048085067 0.24741097
0000e0 3f 13 4f 3e ca 9e b3 3b 66 cc 09 3e 82 fa a5 3d
       0.20222186 0.0054815756 0.13456878 0.08104421
0000f0 f8 2b 5c bc fe 9e e9 3d d4 9f fa 3d 41 1d 24 3d
       -0.013438217 0.114072785 0.12237516 0.04006696
000100 ad a3 4c bd ac 37 90 bd 8e cf b5 3e 0d 22 ad 3e
       -0.04996078 -0.070418686 0.35509914 0.3381504
000110 93 35 a6 3e 4c ab 2e 3d 6a 55 e2 3d cd c1 3b 3e
       0.3246275 0.04264383 0.11051448 0.18335648
000120 6b e0 8d bc 6b 54 cc be c0 52 52 3e 19 13 10 3c
       -0.017318925 -0.39908156 0.20539379 0.008793616
000130 a9 e3 49 3e 73 63 19 be 13 5d 99 3c 2a 75 ff 3c
       0.19715752 -0.14979343 0.018721139 0.031183798
000140 45 ce 8d 3e 4a 47 a5 3d a3 14 dc 3d c4 c8 8b 3e
       0.27696434 0.08070238 0.10746124 0.2730161
000150 33 63 71 3e 74 ae 4d 3e 2e 3c 20 3e 27 17 e0 3d
       0.23572998 0.2008608 0.15647957 0.10941916
000160 c4 bf 95 3c 7b e6 83 3e 63 e8 a9 3e dc 61 89 3e
       0.018279918 0.2576178 0.3318511 0.26832473
000170 7e 61 b4 3d 94 4a 96 be 0f e3 80 3e 54 bb 24 3e
       0.08807658 -0.29353774 0.25173232 0.16087085
000180 01 96 27 3d 5c 1a a7 bd 42 64 6a 3e ff 1b 26 3e
       0.04091454 -0.081593245 0.22889808 0.16221617
000190 56 7e 14 3e df 48 9b be 3d fa 8e 3e 8a 29 af 3e
       0.14501318 -0.30329034 0.27925292 0.3421138
0001a0 74 03 7b 3e aa 8c d7 3d 67 7f de 3e c3 1d 6e 3e
       0.24513036 0.105248764 0.43456575 0.2325354
0001b0 c9 11 c3 3e 79 0f 9b 3e 27 3e ac 3e d1 34 82 3e
       0.38099506 0.30285242 0.33641168 0.2543092
0001c0 a8 bf 8c 3d 64 02 97 3e 63 6a 76 3e 3b 48 9d 3c
       0.06872493 0.2949401 0.24064021 0.019199481
0001d0 21 ac 07 3e 85 e5 a0 be 2c 8e 49 3d 63 4c a7 3d
       0.13249256 -0.3142511 0.04920785 0.081688665
0001e0 07 15 a5 3e dc 2b 40 be b6 8b 0a 3e c1 f5 5f 3e
       0.32242605 -0.18766731 0.13529858 0.21871091
0001f0 75 e3 8f 3e cb dc 90 be 17 a5 b4 3e 95 40 9b 3e
       0.28103223 -0.28293452 0.35282204 0.3032271
000200 1c 80 a6 3d 58 50 c7 3e 30 31 cd 3d 0d ab 21 3e
       0.08129904 0.38928485 0.100191474 0.15787907
000210 54 40 a3 3d 5a c5 da 3e 15 b6 4c 3e 92 b2 a5 3e
       0.07971254 0.42728692 0.19991334 0.323628
000220 f7 04 47 3e 2e 2a 8b 3e 15 d9 68 3e 82 3e b8 3c
       0.19435488 0.27180618 0.2273906 0.022490744
000230 0a ff 50 3e 1b 2f c0 bd c1 23 28 3e a5 46 32 3e
       0.2040979 -0.09383985 0.16419889 0.17409761
000240 49 10 43 3e 9e 85 3b be 56 97 7a 3e 38 1d 29 bd
       0.19049181 -0.1831269 0.24471793 -0.04128763
000250 d5 9d 97 3e 4c e3 6d be cd 4a cc 3e 06 d7 ba 3e
       0.29612604 -0.23231238 0.39900818 0.36492175
000260 c3 e4 8d 3d 87 7b ce 3e 3f 6f 15 3d db 73 b2 3e
       0.069283985 0.4032862 0.036483046 0.34854016
000270 09 60 86 3e 13 3a 9f 3e 20 31 45 3d ef a8 8d 3e
       0.26245144 0.31098995 0.048142552 0.2766795
000280 8e b0 a9 3d f7 76 75 bc 64 55 ad 3e c2 fb 8c 3e
       0.08285628 -0.014981977 0.3385421 0.27535826
000290 80 17 b5 3e 93 80 3e be 6b f0 be 3e c4 f3 c5 3e
       0.35369492 -0.18603735 0.372928 0.3866254
0002a0 52 c4 a3 3d 7d 7c 96 be c7 04 92 3e 2b 07 92 3b
       0.079964295 -0.29391852 0.2851927 0.004456421
0002b0 89 57 94 3e 54 5a 9a be af 96 e0 3e 9b 8e 91 3e
       0.28973034 -0.3014704 0.43864962 0.28429112
0002c0 69 e6 6b 3e 7f 44 9e 3e d7 15 99 3d 9b 41 5d 3e
       0.23037113 0.30911633 0.07474869 0.21607058
0002d0 b1 9f 7b 3e 2b 64 08 3e 35 91 e1 3d dc 17 79 3d
       0.24572636 0.13319461 0.11014024 0.06081377
0002e0 3a 5c bf 3e 2d 6a a8 3e 3a 90 f6 3e 90 f6 b6 3e
       0.3737505 0.32893506 0.4815691 0.35734987
0002f0 16 13 34 bc e9 53 5f 3c a9 25 86 3e bd 92 16 3e
       -0.010990879 0.013630846 0.26200607 0.14704414
000300 3a a3 85 3e c7 29 52 be 15 f0 4b 3e ec ca 3a 3e
       0.26101094 -0.2052375 0.19915803 0.18241471
000310 ee 33 bc 3e ac 64 4b be 6e 5d 07 3e 92 b6 cd 3e
       0.3675837 -0.19862622 0.13219234 0.40178353
000320 74 bd af 3e 3f 87 9d 3e cc 8f 93 3e 03 9d 4d 3e
       0.3432423 0.30767247 0.28820646 0.20079426
000330 0d c0 bc 3e a2 de 9c 3d 4b 4c 3f 3e 30 f9 74 3e
       0.36865273 0.07659651 0.18681447 0.23923182
000340 6f 7f a1 3e 61 55 48 3d ef 75 23 3e 95 4e 88 3e
       0.31542537 0.04890955 0.15962957 0.26622453
000350 ae 25 34 3d f7 d5 44 be e5 f1 3d bb c0 36 40 3e
       0.043981247 -0.19222246 -0.0028983292 0.18770885
000360 3e 35 fb 3d 86 1f 53 be 5e dd 71 3d 31 79 a6 bd
       0.122660145 -0.20617494 0.059049003 -0.08128584
000370 08 1b 9c 3e 37 ad 06 be c3 bf 29 3e 1c 23 7c 3e
       0.30489373 -0.13152014 0.16577058 0.24622768
000380 98 15 04 3e 70 e9 aa 3e e8 81 a6 3e 3b bb 88 3d
       0.12898862 0.33381224 0.32520986 0.066763364
000390 4a a0 bc 3d 92 5b 25 3e 43 96 83 3c 72 bf 1a 3e
       0.0921026 0.16148213 0.016062861 0.15112093
0003a0 1b 60 30 bd cd e7 1f bc 85 d8 ca 3e eb 6e 18 3e
       -0.043060403 -0.009759855 0.39618316 0.14886062
0003b0 ee e0 e2 3d 52 e5 17 be 62 d0 69 3e 38 62 9f 3e
       0.11078058 -0.14833573 0.22833398 0.31129622
0003c0 fe c4 b8 3d dc e7 b3 be ca 58 4b 3e 23 ba 24 3e
       0.09021948 -0.35137832 0.19858089 0.1608663
0003d0 3f f3 89 3e 1a f2 33 be a4 dd 62 3e 00 2c 1d 3d
       0.26943395 -0.17572823 0.22154862 0.03837204
0003e0 7f 78 ae 3e 82 71 48 3e 8c 0d 86 3d 0c 61 c6 3e
       0.34076306 0.1957455 0.065455526 0.38745916
0003f0 76 c9 a7 3e 04 2d 85 3d ad a9 31 3d eb c9 83 3d
       0.3277089 0.06502727 0.043374706 0.06434997

bias f4 [24]
000000 6a 47 99 3e 11 b8 cb 3e ab 90 3c 3e 7a 56 e0 3d
       0.29937297 0.3978887 0.18414561 0.10953994
000010 3e a6 c5 3e 60 e6 f6 3e da 78 12 3e 8d 5b c6 3e
       0.38603395 0.48222637 0.14303914 0.38741723
000020 cc f7 c8 3e 93 77 ca 3e f7 ff ac 3e ef cf 9d 3e
       0.39251554 0.39544353 0.33789036 0.30822703
000030 4b b0 23 3e 7d 29 b9 3e 00 50 52 3e 72 b4 2c be
       0.15985219 0.36164466 0.2053833 -0.1686571
000040 6f a6 7a 3e b1 4f 36 3e 27 35 b2 3e 07 a1 f9 3e
       0.24477552 0.17803837 0.34806177 0.48755667
000050 b0 06 01 3f 30 9c 6d 3e 99 96 e9 3e a5 2f 05 3f
       0.5040083 0.23204112 0.4562271 0.52025825

weight f4 [24, 24]
000000 80 10 16 3b 74 5e b0 3d 40 8c ec 3d fe ee 1f 3e
       0.0022898018 0.086117655 0.11550188 0.15618512
000010 74 af df 3d e4 70 b2 3d 4a ab 9e bd 9f 13 e9 bd
       0.10922137 0.087129384 -0.077475145 -0.113806956
000020 31 3b c6 bd 12 fb 2b 3e cc 81 4a bd 00 3c ef 3b
       -0.096792586 0.16794994 -0.04944019 0.0073008537
000030 8f ee 42 be 60 8e 14 bc 98 dc 6b bd a6 de 06 be
       -0.19036315 -0.009067148 -0.05758342 -0.13170871
000040 76 e1 21 3e 40 3a 29 be c8 09 ef bc d0 20 6d bc
       0.15808663 -0.16526127 -0.029179469 -0.014473155
000050 bd 3a 3d be b4 c1 fc 3d 6a 04 85 bd 74 ce bb 3d
       -0.18479438 0.123416334 -0.064949825 0.09170237
000060 98 96 a6 3e 06 59 0c 3f 1d a3 91 3e 6f c7 b3 3e
       0.3253677 0.5482334 0.28444758 0.35113093
000070 56 f2 d1 3e b4 1a 6f 3e 1b 03 32 3e 2b 98 23 3e
       0.410052 0.2335003 0.17383997 0.15976016
000080 22 89 75 3e 3a 38 a2 3e bb 15 02 3d d9 95 bd 3e
       0.23978093 0.31683522 0.031759005 0.37028387
000090 62 83 80 3e 90 4f e8 3c ae 4c 8b 3e 20 a6 04 3e
       0.25100237 0.02835825 0.2720694 0.12953997
0000a0 92 7e 9e 3e c4 4c c4 3e 73 44 86 3e cc 56 83 3d
       0.3095594 0.38339818 0.26224098 0.064130396
0000b0 09 07 6a 3e 0b b1 b9 3e 94 68 ea 3d fd 0e a3 3e
       0.22854246 0.36267886 0.11445728 0.31847373
0000c0 59 cb 8b 3e 77 b2 91 3e 43 5c 3f 3e ae 80 89 3e
       0.2730358 0.2845647 0.18687539 0.26855987
0000d0 2c af b3 3d e4 8c af 3e 7e df ba 3e c6 bd b3 3e
       0.08773646 0.3428718 0.36498636 0.35105723
0000e0 b8 54 d8 3e 4e 14 86 3e 19 2d c5 3d f6 e4 7e 3e
       0.42252135 0.26187366 0.09627742 0.24892029
0000f0 21 5d 2d 3e 19 1b 98 3e 02 d8 c3 3e 8e cf e4 bd
       0.16930057 0.29708174 0.38250738 -0.111724004
000100 7b 12 74 3e f2 4c d9 3e c2 49 82 3d 0b 86 50 3e
       0.23835175 0.42441517 0.063617244 0.20363633
000110 7d 37 e2 3e d4 89 b8 3e 6a eb 8d 3e b4 d1 2c 3e
       0.4418296 0.36042655 0.2771867 0.1687687
000120 07 a8 50 3e 6d 76 f6 3d bc 69 20 bc 34 7c 67 bc
       0.20376597 0.12034307 -0.009790834 -0.014128733
000130 03 d5 d5 3e 92 bd bc 3e 20 bf 9a 3e 21 04 37 3e
       0.41764078 0.3686338 0.30223942 0.17872669
000140 ff cb c6 3e a7 e9 5a 3e d9 b9 c1 3e 17 0d 6b 3e
       0.38827512 0.21378194 0.37837103 0.22954212
000150 23 f6 01 3e 09 f1 24 3e 90 41 23 3e 94 53 3f be
       0.1269155 0.16107573 0.15942979 -0.18684226
000160 33 36 90 3e 3a 01 25 3e b5 1c 9d 3e ae eb b8 3e
       0.2816635 0.16113749 0.30685964 0.3611731
000170 f4 d7 53 3e f0 0d 9f 3e 8b 97 80 3e c1 2a c7 3e
       0.20687848 0.3106532 0.25115618 0.38899806
000180 6f 83 98 3d c7 7e a8 3e 5d 3e 17 3e 9a 8c b9 3e
       0.07446944 0.32909223 0.14769883 0.36240083
000190 d3 94 57 3c 1a f8 91 3d e5 66 71 3e 87 b7 c6 3e
       0.013158041 0.071274 0.23574407 0.38811895
0001a0 83 4f a7 3e b2 ec 50 3d 03 14 7b 3d 29 93 d1 3e
       0.3267785 0.05100698 0.06129838 0.40932587
0001b0 21 fa 6a 3e 45 e9 a9 3c fe e3 04 3e 88 c3 b6 3d
       0.22946979 0.020741114 0.12977597 0.089240134
0001c0 d2 99 3b 3e 9e 5c 33 3d dd 2c de 3d 28 11 d8 3d
       0.18320397 0.0437895 0.10848401 0.10550147
0001d0 5a 98 4a 3e 43 04 8d 3e 0e e8 93 3e 48 7f 02 3e
       0.1978468 0.27542314 0.2888798 0.12743866
0001e0 82 5d 2f 3e 17 c0 41 3e f1 6c c4 3e 81 28 ca 3e
       0.17125514 0.18920933 0.38364366 0.39484027
0001f0 cc ca d6 3e 23 13 96 3e bf ed 2e 3e c3 77 67 3e
       0.41951597 0.29311475 0.1708288 0.22604279
000200 4e 50 92 3e eb 29 62 3d d7 e5 78 3e 5c e3 81 3d
       0.28576893 0.055215757 0.24306427 0.063421935
000210 24 2f 88 3c 46 1d 5c 3e 49 77 01 3e 69 68 04 be
       0.01662404 0.21495542 0.1264316 -0.12930454
000220 8a 6b 81 3e 29 02 68 3e 13 ed 8d 3e 69 3d f9 3d
       0.25277358 0.22657074 0.27719936 0.12169916
000230 9b 63 9c 3c 87 87 5f 3e f2 0d 07 3e 2e 66 2e 3e
       0.019090464 0.21829043 0.13188913 0.17031166
000240 23 3d bf 3e f0 1b c2 3e 5f 1b 98 3e b2 2a 16 3e
       0.3735133 0.3791194 0.29708382 0.14664724
000250 af ce 8b 3d 16 e3 83 3e ae 9d c3 3d 37 78 87 3e
       0.06826531 0.2575919 0.095515594 0.26458904
000260 15 df 74 3d 05 d5 d8 3e 0c d1 cc 3d 65 4e d4 3e
       0.05978306 0.4235002 0.1000081 0.4146606
000270 b6 b4 c0 3e 71 81 c5 3e fd ac ab 3e 90 85 41 3d
       0.37637872 0.38575318 0.33530417 0.047246516
000280 b0 f0 6a 3e 2f 9e 61 3e e3 4e 2a 3e 4d 16 64 3d
       0.22943377 0.22032999 0.16631655 0.05568533
000290 44 15 da 3e f2 2e 6d 3e 9c 08 a3 3e 63 c6 87 3e
       0.4259435 0.2316244 0.31842506 0.26518545
0002a0 01 ae ae 3e 24 4d da be b5 d8 32 bd 1e ca 98 3e
       0.3411713 -0.4263698 -0.0436637 0.29841703
0002b0 34 68 3e 3e 72 16 f8 bd ca d9 3d bd 45 88 37 be
       0.18594438 -0.12113656 -0.046350278 -0.17923076
0002c0 c7 89 2d be e8 d1 ca be 2a 5a 20 3e ca 2f c4 be
       -0.16947089 -0.3961327 0.15659395 -0.3831771
0002d0 16 78 67 bd 05 f2 5f be 90 18 0d 3f 78 60 3c 3e
       -0.056511007 -0.21869667 0.55115604 0.18396175
0002e0 a4 c9 b8 be 93 15 91 3e 6c c0 37 bf 5d c5 95 be
       -0.3609134 0.28336772 -0.7177799 -0.2925214
0002f0 d4 e1 8e 3e a9 75 b4 3e 80 ca a5 bd 25 08 a9 be
       0.27906668 0.35246018 -0.080952644 -0.33014026
000300 e6 59 c8 3e 08 d3 af 3e 5e 44 b3 3e f8 6d 95 3e
       0.39131087 0.34340692 0.35013098 0.29185462
000310 74 b4 c0 3e f5 79 5e 3e ab 4b 1f 3d 19 6e ef 3c
       0.37637675 0.2172621 0.038890522 0.029227303
000320 7f 67 a7 3d 29 25 ce 3e 1e 1b a4 3e 4b 67 89 3e
       0.08174037 0.40262726 0.3205194 0.2683662
000330 cc 5e 07 3d 9a af 15 3d 48 d9 b4 3e 40 94 ad bc
       0.03304939 0.03654442 0.35322022 -0.021188855
000340 ad 45 4d 3b 81 83 2c 3e b3 ab 20 3e db c0 5d 3e
       0.0031322048 0.1684704 0.15690498 0.216556
000350 1d 17 9c 3e 77 ec 8a 3e 42 b1 19 3d 6a a0 64 3e
       0.30486384 0.27133533 0.03752256 0.22326818
000360 dc 9a ed bd 90 2a f7 3d 4a 9a a4 3d e8 06 c7 3d
       -0.11601803 0.12068665 0.08037241 0.09718114
000370 c7 05 2b 3e 8f e9 ae 3d 47 37 66 be d3 2d e4 3c
       0.16701423 0.085406415 -0.22482024 0.027853882
000380 11 3a 2b be e2 26 4b 3c 58 3f b7 bc 6d bc 35 3e
       -0.1672137 0.012399407 -0.022369072 0.1774766
000390 ae 63 24 be 5d b4 60 be 77 68 96 bd 4c bb 06 3d
       -0.1605365 -0.21943803 -0.07344144 0.032893464
0003a0 e0 e1 00 3e 0a 84 12 3e 8f 7e 10 3e 04 01 3b 3d
       0.12586164 0.14308181 0.14110778 0.045655265
0003b0 32 47 ab bd aa 3e 80 bd ef 37 07 be 1f 44 cd 3c
       -0.08363189 -0.06261952 -0.1320493 0.025056897
0003c0 9a 80 95 3d 16 5f d5 3e 24 70 b4 3e 04 3a ba 3e
       0.072999194 0.41674107 0.35241807 0.36372387
0003d0 90 7d 80 3c 26 5f c0 3e 8a 7a bd 3d a4 8c 5a 3e
       0.015684873 0.37572592 0.09251888 0.21342713
0003e0 ca c5 cb 3e ce 7c bd 3e 73 a1 27 3e ce fd b3 3e
       0.3979934 0.3700928 0.16370182 0.35154575
0003f0 de aa a7 3c 2e d0 c1 3e 9e d8 cd 3e a0 df 17 bc
       0.020467218 0.3785414 0.40204328 -0.009269625

bias f4 [24]
000000 c4 b8 32 be 13 3c 45 3e b6 5d 75 3e 50 b6 7a 3e
       -0.17453295 0.19261198 0.23961529 0.24483609
000010 a4 64 74 3e 19 7d 26 3e f1 57 57 3e 95 37 66 3e
       0.23866516 0.16258658 0.2102964 0.2248214
000020 45 80 e4 3e 0b 32 89 bd 53 fb dc 3e c0 f6 28 be
       0.44629112 -0.06698998 0.43160495 -0.16500378
000030 99 4d 18 bd 4f 26 bd bd 6e 31 3d be d0 65 ef bb
       -0.037183378 -0.092358224 -0.18475887 -0.007305838
000040 07 1a 59 3e 06 27 e0 3e b7 fb 02 3e 96 34 6a 3d
       0.21201335 0.43779773 0.12791334 0.057179056
000050 ac 5e 6f 3e 89 7d 8b 3e 7c 37 3b be 2f 73 1a 3e
       0.23375958 0.27244213 -0.18282884 0.15083002

weight f4 [1, 24]
000000 70 e8 b0 bd ee 01 ab 3e 09 84 90 3e f0 98 b6 3e
       -0.08638084 0.3339991 0.28225735 0.35663557
000010 f4 c6 70 3e 27 29 af 3e c1 92 93 3e a1 99 27 bf
       0.23513395 0.34211084 0.28822902 -0.65468794
000020 df 03 6e 3e 67 27 31 be 8a 38 73 3e b2 55 89 bd
       0.23243664 -0.17300187 0.23752037 -0.06705798
000030 4a ed 3f bd de 27 e3 be 90 02 dd bd 00 76 04 be
       -0.046857156 -0.44366354 -0.107915044 -0.12935638
000040 aa e4 84 3e 14 85 6b 3e 85 71 c3 bc cf 64 d1 3e
       0.25955707 0.22999984 -0.023857841 0.40897223
000050 4b c1 c0 3e a4 2b a1 3e 2f 9b f3 be 0e 12 80 3e
       0.3764747 0.31478608 -0.47579333 0.25013775

train_mean f4 [80, 11]
000000 59 9e 20 44 c6 7d c6 44 7a 9d af 44 7c 72 0a 44
       642.4742 1587.9304 1404.9211 553.7888
000010 34 41 15 45 3e 7a 0d 46 b5 39 fe 45 d4 c7 06 41
       2388.0752 9054.561 8135.2134 8.423786
000020 97 40 c4 43 47 9c 1b 42 45 b4 ba 41 78 9e 20 44
       392.5046 38.902615 23.338022 642.4761
000030 b8 7e c6 44 7c 9e af 44 1d 72 0a 44 34 41 15 45
       1587.96 1404.9526 553.783 2388.0752
000040 98 7a 0d 46 f7 39 fe 45 44 c8 06 41 3f 42 c4 43
       9054.648 8135.2456 8.423893 392.51755
000050 b9 99 1b 42 d1 b2 ba 41 a8 9e 20 44 a3 7e c6 44
       38.90012 23.337313 642.479 1587.9574
000060 ee a0 af 44 e0 71 0a 44 35 41 15 45 e9 7a 0d 46
       1405.029 553.7793 2388.0754 9054.728
000070 6f 3a fe 45 49 c9 06 41 f5 42 c4 43 b9 98 1b 42
       8135.304 8.424142 392.5231 38.899143
000080 fb b1 ba 41 b9 9e 20 44 c4 7f c6 44 5a a3 af 44
       23.336905 642.48004 1587.9927 1405.1047
000090 82 71 0a 44 37 41 15 45 0f 7b 0d 46 f7 3a fe 45
       553.77356 2388.076 9054.765 8135.3706
0000a0 18 ca 06 41 ab 43 c4 43 ff 96 1b 42 94 b0 ba 41
       8.424339 392.52866 38.897457 23.33622
0000b0 e1 9e 20 44 f1 81 c6 44 4e a4 af 44 2b 71 0a 44
       642.4825 1588.0607 1405.1345 553.76825
0000c0 38 41 15 45 3a 7b 0d 46 50 3b fe 45 e2 ca 06 41
       2388.0762 9054.807 8135.414 8.424532
0000d0 61 44 c4 43 9e 95 1b 42 fe ae ba 41 10 9f 20 44
       392.5342 38.89611 23.335445 642.48535
0000e0 30 83 c6 44 5f a6 af 44 c7 70 0a 44 3a 41 15 45
       1588.0996 1405.1991 553.76215 2388.0767
0000f0 97 7b 0d 46 ab 3b fe 45 7e cb 06 41 53 45 c4 43
       9054.897 8135.4585 8.424681 392.5416
000100 94 95 1b 42 c1 ad ba 41 0d 9f 20 44 05 84 c6 44
       38.896072 23.33484 642.48517 1588.1256
000110 e3 a7 af 44 b3 70 0a 44 3b 41 15 45 cd 7b 0d 46
       1405.2465 553.7609 2388.077 9054.95
000120 09 3c fe 45 46 cc 06 41 be 46 c4 43 5a 94 1b 42
       8135.5044 8.424871 392.55267 38.894875
000130 04 ae ba 41 12 9f 20 44 1f 85 c6 44 23 a9 af 44
       23.334969 642.4855 1588.16 1405.2855
000140 8a 70 0a 44 3b 41 15 45 e1 7b 0d 46 72 3c fe 45
       553.7584 2388.077 9054.97 8135.5557
000150 e2 cc 06 41 ed 47 c4 43 80 94 1b 42 49 ac ba 41
       8.42502 392.56192 38.89502 23.334124
000160 62 9f 20 44 ec 86 c6 44 39 ab af 44 33 70 0a 44
       642.49036 1588.2163 1405.3507 553.7531
000170 3c 41 15 45 41 7c 0d 46 0f 3d fe 45 2e ce 06 41
       2388.0771 9055.063 8135.6323 8.425337
000180 a3 48 c4 43 4a 93 1b 42 03 ac ba 41 81 9f 20 44
       392.56747 38.893837 23.33399 642.49225
000190 b7 87 c6 44 6a ad af 44 12 70 0a 44 3d 41 15 45
       1588.2411 1405.4192 553.7511 2388.0774
0001a0 86 7c 0d 46 58 3d fe 45 ec ce 06 41 0e 4a c4 43
       9055.131 8135.668 8.425518 392.57855
0001b0 89 92 1b 42 55 ab ba 41 b0 9f 20 44 4f 8a c6 44
       38.8931 23.333658 642.4951 1588.3221
0001c0 2c ae af 44 86 6f 0a 44 40 41 15 45 c7 7c 0d 46
       1405.4429 553.74255 2388.0781 9055.194
0001d0 d4 3d fe 45 f1 cf 06 41 c4 4a c4 43 cc 91 1b 42
       8135.7285 8.425767 392.5841 38.89238
0001e0 b3 a9 ba 41 b8 9f 20 44 68 8b c6 44 12 b0 af 44
       23.33286 642.4956 1588.3564 1405.5022
0001f0 f9 6e 0a 44 40 41 15 45 f2 7c 0d 46 41 3e fe 45
       553.73395 2388.0781 9055.236 8135.7817
000200 35 d1 06 41 4b 4a c4 43 c7 90 1b 42 c5 a7 ba 41
       8.426076 392.5804 38.891384 23.331919
000210 c4 9f 20 44 4c 8d c6 44 c8 b1 af 44 81 6e 0a 44
       642.49634 1588.4155 1405.5557 553.7266
000220 40 41 15 45 3b 7d 0d 46 ab 3e fe 45 fe d1 06 41
       2388.0781 9055.308 8135.8335 8.426268
000230 c4 4a c4 43 61 8f 1b 42 14 a8 ba 41 e5 9f 20 44
       392.5841 38.89002 23.33207 642.49835
000240 9d 8d c6 44 93 b2 af 44 30 6e 0a 44 3f 41 15 45
       1588.4254 1405.5804 553.7217 2388.078
000250 79 7d 0d 46 0e 3f fe 45 0d d3 06 41 b6 4b c4 43
       9055.368 8135.882 8.426526 392.5915
000260 39 8d 1b 42 fc a5 ba 41 09 a0 20 44 03 8e c6 44
       38.887913 23.331047 642.50055 1588.4379
000270 f9 b3 af 44 90 6d 0a 44 40 41 15 45 b2 7d 0d 46
       1405.6241 553.7119 2388.0781 9055.424
000280 78 3f fe 45 fd d3 06 41 22 4d c4 43 0c 8c 1b 42
       8135.9336 8.426755 392.6026 38.886765
000290 97 a4 ba 41 2c a0 20 44 e8 90 c6 44 8e b5 af 44
       23.330366 642.5027 1588.5283 1405.6736
0002a0 2a 6d 0a 44 41 41 15 45 f3 7d 0d 46 eb 3f fe 45
       553.7057 2388.0784 9055.487 8135.9897
0002b0 c3 d4 06 41 14 4e c4 43 6b 8b 1b 42 d2 a2 ba 41
       8.426944 392.61 38.88615 23.329502
0002c0 51 a0 20 44 9f 92 c6 44 1d b8 af 44 b6 6c 0a 44
       642.50494 1588.5819 1405.7535 553.6986
0002d0 43 41 15 45 4e 7e 0d 46 a5 40 fe 45 a7 d5 06 41
       2388.0789 9055.576 8136.0806 8.427161
0002e0 35 50 c4 43 0f 8a 1b 42 4f a0 ba 41 81 a0 20 44
       392.62662 38.884823 23.328276 642.5079
0002f0 e9 94 c6 44 d5 b9 af 44 4f 6c 0a 44 45 41 15 45
       1588.6534 1405.8073 553.6923 2388.0793
000300 c3 7e 0d 46 2d 41 fe 45 24 d6 06 41 a0 51 c4 43
       9055.69 8136.147 8.42728 392.6377
000310 d9 88 1b 42 4f 9f ba 41 a1 a0 20 44 de 95 c6 44
       38.88364 23.327787 642.5098 1588.6833
000320 96 bb af 44 0f 6c 0a 44 47 41 15 45 27 7f 0d 46
       1405.862 553.6884 2388.0798 9055.788
000330 f0 41 fe 45 24 d8 06 41 48 53 c4 43 42 87 1b 42
       8136.242 8.427769 392.65063 38.882088
000340 dd 9e ba 41 c1 a0 20 44 aa 98 c6 44 4f be af 44
       23.32757 642.5118 1588.7708 1405.9471
000350 94 6b 0a 44 49 41 15 45 90 7f 0d 46 3f 42 fe 45
       553.6809 2388.0803 9055.891 8136.281
000360 d7 d9 06 41 6a 55 c4 43 7a 85 1b 42 0b 9d ba 41
       8.428184 392.6673 38.88035 23.326681
000370 ee a0 20 44 6d 99 c6 44 24 c0 af 44 25 6b 0a 44
       642.5145 1588.7946 1406.0044 553.67413
000380 4c 41 15 45 e4 7f 0d 46 d9 42 fe 45 3f db 06 41
       2388.081 9055.973 8136.356 8.428527
000390 8b 57 c4 43 e6 81 1b 42 83 9b ba 41 13 a1 20 44
       392.68393 38.876854 23.325933 642.5168
0003a0 af 9b c6 44 f7 c1 af 44 80 6a 0a 44 4e 41 15 45
       1588.8651 1406.0614 553.66406 2388.0815
0003b0 3e 80 0d 46 98 43 fe 45 16 dc 06 41 ac 59 c4 43
       9056.061 8136.449 8.428732 392.70056
0003c0 db 7f 1b 42 ab 99 ba 41 30 a1 20 44 2f 9c c6 44
       38.87486 23.325033 642.51855 1588.8807
0003d0 82 c4 af 44 ec 69 0a 44 50 41 15 45 c0 80 0d 46
       1406.1409 553.655 2388.082 9056.1875
0003e0 57 44 fe 45 d1 dc 06 41 90 5b c4 43 bc 7d 1b 42
       8136.5425 8.42891 392.71533 38.872787
0003f0 6a 98 ba 41 68 a1 20 44 ec 9d c6 44 0e c8 af 44
       23.32442 642.522 1588.935 1406.2517

train_std f4 [80, 11]
000000 41 f3 bb 3e ce f2 95 40 e9 22 b3 40 21 db 17 3f
       0.36709026 4.6858892 5.5980115 0.5931874
000010 e9 f3 49 3d 2b 4f d5 40 50 f1 ca 40 d1 17 d0 3c
       0.049304876 6.665914 6.341957 0.025401982
000020 f7 40 85 3f 4c df ff 3d 40 b6 a1 3d f9 5a bc 3e
       1.0410451 0.124937624 0.078960896 0.36788157
000030 ef 33 96 40 bb 6a b2 40 99 33 18 3f 07 b3 49 3d
       4.6938396 5.5755286 0.5945373 0.049243
000040 90 37 d7 40 89 98 ca 40 bb d2 d0 3c e2 ea 85 3f
       6.7255325 6.33112 0.02549111 1.0462306
000050 d6 25 01 3e 2c 25 a2 3d 00 2d bd 3e 8a 6d 95 40
       0.1261209 0.07917246 0.36948395 4.6696215
000060 d9 4b b4 40 48 74 17 3f a1 d6 49 3d 8d 34 d7 40
       5.6342587 0.59161806 0.04927695 6.725165
000070 43 39 cc 40 aa 39 d1 3c 59 e7 85 3f 24 8b 01 3e
       6.38199 0.025540192 1.0461227 0.12650734
000080 63 9f a2 3d ec f1 bb 3e 03 3e 95 40 ec e7 b3 40
       0.07940557 0.3670801 4.66382 5.622061
000090 9f ca 17 3f 22 7a 4a 3d d8 b7 d8 40 09 42 cc 40
       0.5929355 0.04943288 6.772442 6.383061
0000a0 4b b5 d1 3c cf 1c 86 3f c9 64 01 3e e2 59 a2 3d
       0.025599143 1.0477542 0.12636103 0.079273
0000b0 09 40 bc 3e e0 da 93 40 47 b1 b3 40 83 62 18 3f
       0.36767605 4.620468 5.6153903 0.59525317
0000c0 02 41 4b 3d 0b e2 d9 40 e8 c7 cc 40 e2 04 d3 3c
       0.049622543 6.808843 6.3994026 0.025759164
0000d0 c3 37 87 3f 10 28 01 3e eb 0c a2 3d de ee ba 3e
       1.0563892 0.12612939 0.0791262 0.36510366
0000e0 d1 73 94 40 77 b0 b3 40 f5 ba 18 3f dc 58 4b 3d
       4.6391377 5.615291 0.59660274 0.04964529
0000f0 44 b0 d9 40 75 a5 ce 40 db 6e d2 3c 40 82 86 3f
       6.802767 6.4576974 0.025687626 1.0508499
000100 63 40 01 3e b4 89 a2 3d 5e 13 ba 3e 1c 8d 95 40
       0.12622218 0.07936421 0.363429 4.6734753
000110 24 65 b4 40 f4 17 19 3f 6c 8d 4c 3d 59 1c da 40
       5.6373463 0.59802175 0.049939558 6.8159604
000120 9a 7e cf 40 c9 8d d2 3c a4 ab 86 3f 6e 31 01 3e
       6.4842043 0.025702374 1.052113 0.12616512
000130 bd ae a1 3d cd c3 ba 3e c0 ba 95 40 3f 37 b3 40
       0.07894657 0.3647751 4.6790466 5.600494
000140 30 0d 19 3f 88 08 4d 3d 2e 33 dc 40 e3 8b d0 40
       0.5978575 0.050056964 6.8812475 6.517076
000150 b0 d2 d2 3c 1d 9b 86 3f bf ae 00 3e ef 01 a2 3d
       0.02573523 1.0516087 0.1256666 0.07910525
000160 18 90 bb 3e b0 b0 95 40 74 c1 b2 40 60 8b 18 3f
       0.36633372 4.6778183 5.586115 0.5958767
000170 fc d9 4c 3d 79 f6 dd 40 2b 60 d1 40 98 d2 d2 3c
       0.050012574 6.936337 6.5429893 0.025735185
000180 24 56 86 3f dd 57 00 3e b4 ae a1 3d c5 2b bb 3e
       1.0495038 0.12533517 0.0789465 0.3655683
000190 64 1a 96 40 29 a9 b2 40 2a 97 18 3f 4f 97 4d 3d
       4.6907215 5.5831494 0.5960566 0.050193127
0001a0 1e f7 de 40 7f 92 d3 40 06 53 d2 3c 9d 76 86 3f
       6.9676657 6.611633 0.025674354 1.0504948
0001b0 fe 70 00 3e b7 8a a1 3d 44 b8 bb 3e fa 25 95 40
       0.12543103 0.07887786 0.3666402 4.660886
0001c0 14 67 b2 40 59 dc 19 3f 05 6e 4d 3d c4 91 e0 40
       5.575083 0.6010185 0.05015375 7.0177937
0001d0 79 cd d4 40 c3 93 d2 3c 85 68 86 3f a6 dd 00 3e
       6.650082 0.025705224 1.0500647 0.12584552
0001e0 c5 e7 a1 3d 30 c1 bb 3e ad fa 94 40 e1 31 b3 40
       0.07905535 0.36670828 4.6556 5.5998387
0001f0 fb f2 19 3f ae a4 4c 3d 5d a6 e1 40 24 3e d6 40
       0.60136384 0.04996174 7.051558 6.6950855
000200 eb dc d1 3c 60 e5 86 3f 6d 05 01 3e 78 01 a2 3d
       0.025618037 1.053875 0.12599726 0.079104364
000210 c3 c5 ba 3e 03 91 95 40 d7 81 b3 40 8c 30 1a 3f
       0.36479005 4.6739516 5.6095996 0.60230327
000220 b1 f3 4c 3d 4d db e3 40 12 8a d6 40 42 57 d3 3c
       0.05003709 7.12052 6.7043543 0.025798444
000230 73 15 87 3f 79 48 01 3e 2f 6d a1 3d e9 b2 ba 3e
       1.0553421 0.12625302 0.07882153 0.36464623
000240 c8 5e 95 40 06 e0 b3 40 c9 37 1a 3f ac 14 4d 3d
       4.66782 5.6210966 0.6024137 0.050068542
000250 a6 cb e5 40 56 9c d8 40 75 a4 d4 3c fe 8d 86 3f
       7.1811094 6.769084 0.025957325 1.0512083
000260 e5 0f 02 3e b8 f6 a1 3d c5 58 ba 3e 2f 4e 95 40
       0.12701376 0.07908386 0.3639585 4.665794
000270 05 13 b4 40 8e 27 1a 3f 24 3b 4e 3d 1e 27 e8 40
       5.6273217 0.60216606 0.05034937 7.254775
000280 7f 4d da 40 73 6a d5 3c b8 52 87 3f d9 32 02 3e
       6.82196 0.026051736 1.0572119 0.1271471
000290 d0 b0 a1 3d 8e 16 ba 3e cf d7 95 40 8d 55 b4 40
       0.078950524 0.36345333 4.682594 5.635443
0002a0 58 57 1a 3f 12 d2 4d 3d b1 6b e9 40 d9 66 db 40
       0.60289526 0.050249167 7.294396 6.8563046
0002b0 2c f4 d5 3c ff ac 87 3f 78 9a 02 3e 78 a8 a1 3d
       0.026117407 1.0599669 0.12754238 0.07893461
0002c0 7a 80 ba 3e 00 50 95 40 24 c6 b3 40 2e 0d 1a 3f
       0.36426145 4.6660156 5.617937 0.6017636
0002d0 98 dd 4d 3d 08 e2 eb 40 8b 9b dc 40 49 c7 d5 3c
       0.050260156 7.3713417 6.893987 0.026096003
0002e0 a2 54 88 3f df 5e 03 3e ba 67 a1 3d 0d cc ba 3e
       1.0650828 0.12829159 0.078811124 0.36483803
0002f0 29 0a 97 40 fb a9 b4 40 58 2a 1a 3f de 8b 4d 3d
       4.7199903 5.6457496 0.6022086 0.050182216
000300 9a b6 ee 40 63 7c dd 40 ee 0a d5 3c 6d 60 88 3f
       7.45979 6.921434 0.026006188 1.0654427
000310 6a 52 03 3e 47 bc 9f 3d 8a 60 bb 3e 5c 3d 97 40
       0.12824407 0.07799583 0.3659709 4.72624
000320 aa 02 b6 40 ab bb 1a 3f 6d 56 4e 3d 12 d6 f0 40
       5.687825 0.6044261 0.05037539 7.5261316
000330 d6 d1 e0 40 3a bb d5 3c 86 7b 89 3f 99 72 03 3e
       7.0256147 0.026090253 1.0740821 0.12836684
000340 a0 2d a0 3d 01 ae bc 3e 27 5c 97 40 58 ee b5 40
       0.07821202 0.36851504 4.729999 5.6853447
000350 fe 4f 1a 3f 46 d1 4e 3d 4b 80 f2 40 8f 12 e2 40
       0.6027831 0.050492547 7.578161 7.0647655
000360 8d 49 d6 3c bb 7c 8a 3f 09 e4 03 3e 4b 7d a0 3d
       0.026158119 1.0819315 0.12879957 0.07836398
000370 db 98 bc 3e 99 e7 96 40 2d 9f b6 40 aa 3d 1a 3f
       0.3683537 4.715771 5.7069306 0.6025034
000380 71 f2 4e 3d 7c 77 f4 40 f3 fa e3 40 24 29 d8 3c
       0.05052418 7.6395855 7.1243834 0.026386805
000390 f9 e2 8b 3f b4 cc 03 3e 88 30 a1 3d c7 de bc 3e
       1.0928642 0.12871057 0.07870585 0.36888716
0003a0 0a ee 96 40 35 9d b6 40 be b4 1a 3f d2 33 4e 3d
       4.7165575 5.7066903 0.6043204 0.05034239
0003b0 25 d8 f4 40 31 c2 e5 40 41 b3 d8 3c c9 60 8c 3f
       7.651385 7.179955 0.026452662 1.0967036
0003c0 a3 f3 03 3e 2f ba a0 3d 08 d6 bc 3e c2 fc 96 40
       0.12885909 0.07848012 0.36882043 4.718354
0003d0 92 9d b5 40 f1 5b 1b 3f f2 66 4e 3d ca 08 f6 40
       5.6754847 0.60687166 0.050391145 7.688573
0003e0 af c7 e7 40 a4 89 d8 3c d4 e1 8c 3f 41 ff 03 3e
       7.2431254 0.02643282 1.1006417 0.1289034
0003f0 fd 4c a1 3d bc 3e be 3e 48 2b 97 40 6a f7 b6 40
       0.078760125 0.37157238 4.7240334 5.717702
