models/turbofan_initial.pt (torch_old, 15345 bytes, 9 tensors)

weight f4 [24, 11]
0	0x3d9cada5	0.076503076
1	0xbe728137	-0.23682104
2	0xbe11659d	-0.14198919
3	0x3e92ab4c	0.28646314
4	0xbedbf287	-0.4295847
5	0x3ee7b07c	0.45251834
6	0x3e04e0b5	0.12976344
7	0x3c1d0c55	0.00958546
8	0xbd04b5f7	-0.032400098
9	0x3d11cbd4	0.035594776
10	0x3df7e13a	0.121035054
11	0x3ed09ea9	0.40746048
12	0x3f164853	0.5870411
13	0x3e3dc794	0.18533164
14	0xbeba2f83	-0.36364374
15	0x3f163a98	0.58683157
16	0xbd9c14e7	-0.07621174
17	0xbe6ad5b5	-0.22933085
18	0x3efd47ce	0.49468845
19	0x3eb9168a	0.36150008
20	0xbeecfe87	-0.4628794
21	0xbf04b39a	-0.5183655
22	0xbe0722c8	-0.13196862
23	0xbe416ce2	-0.18889192
24	0xbe072a29	-0.13199677
25	0x3e03309a	0.12811509
26	0x3dab7744	0.083723575
27	0x3e823e24	0.25438035
28	0xbe812e36	-0.2523057
29	0x3dc0e777	0.094191484
30	0x3d093117	0.03349408
31	0x3ec5c83b	0.38629326
32	0x3e544374	0.20728856
33	0xbec76db9	-0.389509
34	0xbecc4396	-0.39895314
35	0xbe806125	-0.25074115
36	0x3ed025e6	0.40653914
37	0xbe3abfca	-0.18237224
38	0x3ec13064	0.37732232
39	0x3d111880	0.035423756
40	0x3e18a06c	0.14904946
41	0xbe6465e1	-0.22304489
42	0x3ea14252	0.3149591
43	0x3d1df302	0.03856183
44	0xbe66a1d6	-0.22522673
45	0x3e07930c	0.13239688
46	0xbe445c92	-0.19175938
47	0x3e46ad09	0.19401945
48	0xbe2b22af	-0.1671245
49	0xbcde7644	-0.027156003
50	0xbe97708f	-0.29578063
51	0xbe82603b	-0.25464043
52	0x3dcffc2a	0.10155518
53	0xbd45b4fc	-0.048268303
54	0x3e8df6ad	0.2772726
55	0x3ef66aa9	0.4812825
56	0x3ed0143b	0.40640435
57	0x3d1c1e84	0.03811504
58	0xbdbac8b4	-0.09120312
59	0x3f31fae7	0.6952347
60	0xbe9a06c1	-0.30083278
61	0xbb945636	-0.0045268787
62	0x3e98863f	0.29789922
63	0x3ee137d9	0.4398792
64	0xbecdb044	-0.40173542
65	0xbe9e4587	-0.3091242
66	0xbc741a4c	-0.014898848
67	0x3d5c6144	0.053803697
68	0xbe72650c	-0.23671359
69	0xbe4990ed	-0.19684191
70	0x3e22d46a	0.15901342
71	0xbe3b0ccd	-0.18266602
72	0x3d8ffe9a	0.07030983
73	0xbd20eeec	-0.039290354
74	0x3e0e38e0	0.13888884
75	0x3cc3b76a	0.02389117
76	0x3bdc584d	0.0067243935
77	0x3e1c9a90	0.15293336
78	0xbebb00a2	-0.3652392
79	0x3e41ab0e	0.18912908
80	0xbe3c05cf	-0.18361591
81	0xbe933595	-0.28751817
82	0x3dcee56c	0.101023525
83	0x3c18c257	0.009323678
84	0x3e03efb1	0.12884404
85	0xbe4e5506	-0.20149621
86	0xbeb3a2b0	-0.35085058
87	0x3e3772f8	0.17914951
88	0xbe1fe913	-0.15616255
89	0x3de4b8bd	0.111680485
90	0x3da87e2a	0.08227189
91	0xbe0129e9	-0.12613644
92	0xbcc4a17a	-0.02400278
93	0x3d2ecaa6	0.04267373
94	0xbe6ca48f	-0.23109649
95	0xbe95164b	-0.2911857
96	0x3c58d5ec	0.013234597
97	0x3db15800	0.08659363
98	0xbe5bb0a2	-0.21454099
99	0xbdfdc17a	-0.12390418
100	0x3eafbcde	0.34323782
101	0xbd7d8bdf	-0.06190097
102	0x3e71d684	0.23616987
103	0x3dc29477	0.09500974
104	0xbe7bdc58	-0.24595773
105	0xbea6acd5	-0.32553735
106	0x3e9d04ad	0.3066763
107	0xbcfcae81	-0.030844929
108	0x3e74e381	0.23914911
109	0xbd6cc8db	-0.05780874
110	0xbd15f9f1	-0.036615316
111	0x3dd02a46	0.10164313
112	0x3e7bad3d	0.24577804
113	0xbd6260b7	-0.055268016
114	0xbe023ea1	-0.12719204
115	0x3ecad6c4	0.39616978
116	0x3eca4ef6	0.39513367
117	0x3c5c4951	0.013445214
118	0xbe931514	-0.2872702
119	0xbe289fd3	-0.16467218
120	0xbdc88f63	-0.09792974
121	0x3c338d37	0.010958961
122	0x3ecfe4bd	0.406042
123	0xbe9ae094	-0.30249465
124	0x3e89f48d	0.2694439
125	0xbe7bd0b9	-0.2459134
126	0xbed43fd8	-0.4145496
127	0xbe3fd9dc	-0.1873545
128	0x3e09cb56	0.13456473
129	0x3e7a5aa8	0.24448645
130	0xbe3e2b51	-0.18571211
131	0xbbebcfda	-0.0071964087
132	0x3e840fbb	0.2579325
133	0x3e8cd6e8	0.2750771
134	0x3e21479c	0.15749973
135	0x3ec85e99	0.39134672
136	0x3dbe0a2f	0.09279286
137	0x3e27257d	0.16322894
138	0xbe3b6afe	-0.18302533
139	0xbef40524	-0.47660172
140	0xbea0236f	-0.31277034
141	0x3cbf73ed	0.023370707
142	0xbe798004	-0.2436524
143	0x3dc065cc	0.09394416
144	0x3dae295f	0.08503985
145	0xbd97de08	-0.07415396
146	0x3e0afd03	0.13573079
147	0x3d40214d	0.046906758
148	0x3e9acdb2	0.30235058
149	0x3ea7ecf3	0.32797965
150	0xbe34b1af	-0.17645906
151	0x3eb607a7	0.35552713
152	0xbd905912	-0.07048239
153	0xbe004abe	-0.12528512
154	0xbedeab54	-0.43490088
155	0xbe8aa207	-0.27076742
156	0xbe7cda44	-0.24692637
157	0xbd0c1bc3	-0.034206163
158	0x3e02860f	0.12746452
159	0xbd6a0a60	-0.0571388
160	0xbe4e53bb	-0.20149128
161	0xb910d68c	-0.00013812835
162	0x3ca3bc47	0.019987239
163	0x3e9e3b0b	0.3090442
164	0xbe34fa0c	-0.1767351
165	0xbc014520	-0.007890016
166	0xbe4139f2	-0.1886976
167	0xbe0efc15	-0.13963349
168	0xbde65b92	-0.112479344
169	0xbe87f8dd	-0.26557055
170	0x3e1430de	0.14471766
171	0x3ea0039b	0.3125275
172	0xbdbaed4f	-0.09127294
173	0xbbd43575	-0.006476099
174	0x3eceacc1	0.40366176
175	0x3ea96b74	0.33089793
176	0x3e0305cd	0.12795182
177	0xbd8ab9f7	-0.06773751
178	0xbe9912bf	-0.29897115
179	0x3ebfd075	0.37463728
180	0xbe3c70c0	-0.18402386
181	0x3e081719	0.13290061
182	0xbe181014	-0.14849883
183	0xbe48561e	-0.19564101
184	0xbe95ee2b	-0.2928327
185	0x3ebc14ee	0.36734718
186	0xbe873653	-0.26408634
187	0xbe836416	-0.25662297
188	0xbce97bc5	-0.0285014
189	0xbe19ee3c	-0.15032285
190	0x3e2e3ed2	0.17016152
191	0xbe267cbb	-0.16258518
192	0xbd9ae640	-0.07563448
193	0x3d9c7aa3	0.076405786
194	0x3e1a3c1e	0.15061995
195	0xbe77c64c	-0.24196738
196	0x3e0b8cc7	0.13627921
197	0x3e0e52e5	0.13898809
198	0x3e853bc8	0.26022172
199	0xbe8419e4	-0.25801003
200	0x3d419883	0.047264587
201	0xbe067be7	-0.13133202
202	0x3e4d735e	0.2006354
203	0xbe4dcb91	-0.20097186
204	0x3dfab81f	0.122421496
205	0xbdc08eb2	-0.09402217
206	0xbd2dd4d7	-0.042439308
207	0xbc4f9bed	-0.012671453
208	0xbca1c58c	-0.019747518
209	0x3dd7b823	0.10533168
210	0xbb0313ed	-0.002000089
211	0x3dd485d6	0.1037709
212	0xbe5b09cd	-0.21390457
213	0x3e095e5b	0.134149
214	0x3f0fe02a	0.5620142
215	0x3ef03b03	0.46920022
216	0x3e00fe02	0.12596896
217	0xbe683ada	-0.226787
218	0xbe055c7b	-0.1302356
219	0x3e81caf7	0.25350162
220	0xbeabe12a	-0.33570224
221	0x3ea8fddb	0.33006176
222	0xbeb485fd	-0.35258475
223	0xbe163f43	-0.1467257
224	0x3dc21ec6	0.09478526
225	0xbea4aed5	-0.32164636
226	0xbe44e64b	-0.19228475
227	0x3e16a707	0.14712153
228	0x3e34b5ce	0.17647478
229	0x3ec89132	0.39173275
230	0xbe31f6d7	-0.17379318
231	0xbeac8be0	-0.33700466
232	0x3eb4b8b5	0.3529717
233	0xbdf077df	-0.117416136
234	0xbc6a3d54	-0.014296848
235	0x3c4b83e5	0.012421583
236	0xbe9c073b	-0.30474266
237	0x3db6db9c	0.08928606
238	0x3dcc2ffa	0.09970088
239	0xbeb1ac49	-0.34701756
240	0xbe8ff797	-0.28118584
241	0xbdce1a5a	-0.1006362
242	0x3e4370bd	0.19085975
243	0xbd301b2c	-0.042994663
244	0xbe798f6d	-0.24371119
245	0x3dab2ec0	0.08358526
246	0xbebdb4ac	-0.37051904
247	0xbeb7c74a	-0.35894233
248	0xbeb0e26f	-0.34547755
249	0x3e9e1a7f	0.3087959
250	0x3e9026c5	0.2815458
251	0xbdaeb2f1	-0.08530224
252	0xbd9b4300	-0.075811386
253	0x3de3bf0a	0.11120422
254	0xbc954b2e	-0.018224325
255	0xbe3611b3	-0.17780189

bias f4 [24]
0	0x3ef17707	0.47161123
1	0xbe309a9d	-0.1724648
2	0x3f235dd5	0.6381505
3	0x3e088764	0.13332897
4	0x3f4ad66f	0.7923345
5	0xbd99278e	-0.074782476
6	0x3f153e87	0.58298534
7	0x3f157967	0.5838837
8	0x3f1c73c7	0.6111416
9	0x3f5018b1	0.81287676
10	0x3e550ad3	0.2080491
11	0x3e62283e	0.22085664
12	0x3e296c4e	0.16545221
13	0x3ef51e43	0.4787465
14	0x3e4fbbf0	0.20286536
15	0x3ed70065	0.41992489
16	0x3eba8adc	0.36434066
17	0x3ed3a07f	0.41333386
18	0x3f408b86	0.75212896
19	0x3f08f707	0.53501934
20	0x3e8c1f19	0.27367476
21	0x3e9ec248	0.310076
22	0xbe11546d	-0.14192362
23	0x3f4472a8	0.7673745

weight f4 [24, 24]
0	0x3e1fdadc	0.15610832
1	0xbea2ee71	-0.3182254
2	0x3e61549a	0.22004929
3	0xbb99a5b3	-0.0046889423
4	0x3eb767c8	0.35821366
5	0xbe15fd14	-0.14647323
6	0x3eb8e09d	0.36108866
7	0x3e21ef50	0.15813947
8	0x3e86ab2d	0.26302472
9	0x3e914d7b	0.28379425
10	0x3df9cd92	0.121974126
11	0x3d87a000	0.066223145
12	0x3e8d7ccf	0.27634284
13	0x3e6328e2	0.22183564
14	0x3e546a44	0.20743662
15	0x3dd7320c	0.105075926
16	0x3e1b77e4	0.15182453
17	0x3dbcce52	0.0921904
18	0x3e473654	0.19454318
19	0x3ee24226	0.44191092
20	0x3e2a10f1	0.16608025
21	0x3eb61312	0.35561424
22	0x3e66af06	0.22527704
23	0x3e9402a4	0.28908265
24	0xbe0dc74f	-0.13845561
25	0xbede223d	-0.43385497
26	0x3e3ef7b1	0.18649174
27	0xbe8027dc	-0.2503041
28	0x3cdc0576	0.026858073
29	0xbdf7cb0d	-0.12099276
30	0x3ee232fc	0.44179523
31	0x3e4b1bb9	0.19834794
32	0x3ead28ee	0.3382029
33	0x3e8004c2	0.2500363
34	0x3da90357	0.0825259
35	0x3d7525ac	0.05985038
36	0x3e830e2f	0.2559676
37	0x3e5f3721	0.21798374
38	0xbe163567	-0.14668809
39	0x3d2e42e6	0.042544268
40	0xbe0048f1	-0.12527825
41	0xbd67d9e1	-0.05660427
42	0x3eed1ad5	0.46309534
43	0x3e48fb75	0.19627173
44	0x3e7bf25a	0.24604169
45	0x3bbb8d8a	0.00572366
46	0x3e56a24d	0.2096035
47	0x3e8aff29	0.27147797
48	0xbd5fbfdc	-0.05462633
49	0xbeec5764	-0.46160424
50	0x3de2a5b9	0.11066765
51	0x3c692ba4	0.014231596
52	0xbc8db5c2	-0.017298583
53	0xbee12031	-0.43969873
54	0x3de94f13	0.11392035
55	0x3e976d72	0.29575688
56	0x3e94fffc	0.2910155
57	0x3e4d631d	0.2005734
58	0x3d6ad694	0.057333544
59	0x3d023540	0.031789064
60	0xbd651365	-0.0559267
61	0x3e538281	0.20655252
62	0x3deea89d	0.11653254
63	0x3d7bf047	0.061508443
64	0xbd191af0	-0.037379205
65	0xbd810ec9	-0.06301648
66	0x3ee675ab	0.4501165
67	0x3e897355	0.26845804
68	0x3e9b1ee2	0.30297
69	0x3e4c4a53	0.19950227
70	0x3e8fc054	0.28076422
71	0x3e8c5fed	0.27416936
72	0xbc99f432	-0.0187932
73	0xbf087170	-0.5329809
74	0x3e6b97de	0.23007151
75	0x3ac4c73a	0.0015012987
76	0x3e61ef4d	0.22063942
77	0xbe943f8c	-0.28954732
78	0x3dbc41ef	0.09192263
79	0x3d3b16f4	0.045676187
80	0x3ec8e5bf	0.39237782
81	0x3e5da194	0.21643668
82	0xbb81b468	-0.0039582737
83	0x3e627d54	0.22118121
84	0x3e4d0834	0.2002266
85	0x3e8bc8fe	0.27301782
86	0x3e1333b6	0.14375195
87	0x3dd6d1cb	0.104892336
88	0x3bb75a53	0.0055954843
89	0x3e7b5412	0.24543789
90	0x3edd9e32	0.43284756
91	0x3e58e513	0.21181135
92	0x3dcd7733	0.10032501
93	0xbaf83e19	-0.0018939405
94	0x3ec0f2e6	0.37685317
95	0x3e7be7de	0.24600169
96	0x3d4b257a	0.049596287
97	0xbe3f5de9	-0.18688168
98	0x3e866380	0.26247787
99	0x3e298bc5	0.16557224
100	0x3e384f0f	0.17998908
101	0xbe89430b	-0.26808962
102	0x3eb7e3f1	0.35916093
103	0x3ebfe76c	0.37481248
104	0x3eaa3016	0.33239812
105	0x3e5644a4	0.20924622
106	0x3ec12184	0.37720883
107	0x3e2489ec	0.16068238
108	0x3ecac429	0.39602783
109	0x3e7e42d8	0.24830186
110	0x3ea88bee	0.32919258
111	0x3e84810f	0.25879714
112	0x3d7dbe69	0.061949167
113	0x3e959bfc	0.2922057
114	0x3ea99155	0.33118692
115	0x3ce19035	0.027534584
116	0x3da6c36b	0.08142742
117	0xbd5c89bb	-0.053842288
118	0x3e1faf36	0.15594181
119	0x3e1740ad	0.14770766
120	0x3ea9b5a4	0.33146393
121	0xbeaa4be5	-0.33261028
122	0x3e317c28	0.17332518
123	0x3e5dcedc	0.21660942
124	0x3ea4cd39	0.32187822
125	0xbea5e1d4	-0.32398856
126	0x3edc0dbd	0.4297923
127	0x3eb40040	0.3515644
128	0x3e530ee9	0.20611157
129	0x3ef3c4b6	0.47611016
130	0x3dfc7cd7	0.12328499
131	0x3dfc6e9d	0.12325785
132	0x3e09be1b	0.13451426
133	0x3ef4654b	0.4773353
134	0x3e48e71e	0.19619414
135	0x3ea64215	0.32472292
136	0x3e4508ce	0.1924164
137	0x3e8945f1	0.26811174
138	0x3ea208df	0.31647393
139	0x3dccff68	0.100096524
140	0x3e3e0c04	0.18559271
141	0x3e27afae	0.1637561
142	0x3e855a6d	0.26045552
143	0x3e7bc326	0.24586162
144	0x3e4db2bc	0.20087713
145	0xbea457be	-0.32098192
146	0x3e9008df	0.28131768
147	0xbd20b199	-0.03923187
148	0x3eab673c	0.334772
149	0xbe85be5e	-0.261218
150	0x3ef5eb1e	0.48030943
151	0x3ed47dff	0.41502377
152	0x3e33e980	0.17569542
153	0x3eea34dd	0.45743456
154	0x3caea982	0.021321062
155	0x3e8d038c	0.2754177
156	0x3e98703e	0.29773134
157	0x3ec1461e	0.37748808
158	0x3d20a702	0.03922177
159	0x3e900e70	0.28136015
160	0x3d94af63	0.07260015
161	0xbc86650a	-0.016405601
162	0x3ee0d790	0.4391446
163	0x3ebe48f3	0.3716503
164	0x3e9fc981	0.31208423
165	0x3e0c3c4d	0.13694878
166	0x3edad2fb	0.4273909
167	0x3eebdb07	0.46065542
168	0x3db413f6	0.0879287
169	0xbec60012	-0.3867193
170	0x3ea4c9ad	0.32185116
171	0x3b7b7ef7	0.0038375237
172	0x3ea991f2	0.3311916
173	0xbe996c37	-0.29965374
174	0x3f0508a3	0.51966304
175	0x3ea85f7a	0.32885343
176	0x3eb90a3a	0.36140615
177	0x3ed7ba93	0.42134532
178	0x3dd5cb7c	0.10439202
179	0x3e31b361	0.17353584
180	0x3e9daf2b	0.30797705
181	0x3e3d6d49	0.1849872
182	0x3dd6f665	0.10496215
183	0x3d7bfe9a	0.061522104
184	0x3ebd93a9	0.37026718
185	0x3ea614da	0.32437783
186	0x3f1492d1	0.58036524
187	0x3ede8c02	0.43466192
188	0xbcf1feee	-0.029540505
189	0x3e8738fa	0.26410657
190	0x3ec078bd	0.37592116
191	0x3e60b3d5	0.219436
192	0x3e891cca	0.26779777
193	0xbeaf8c0b	-0.34286532
194	0x3e70130a	0.23444763
195	0x3e37ba61	0.17942192
196	0x3ed00305	0.40627304
197	0xbe752691	-0.23940493
198	0x3e4dad68	0.2008568
199	0x3ee52e9c	0.44762123
200	0x3ee9a037	0.45630047
201	0x3ed8c0a6	0.4233448
202	0x3e9df6b1	0.30852273
203	0x3e12dd42	0.14342216
204	0x3ed06339	0.407007
205	0x3dc5908a	0.09646709
206	0x3e388239	0.18018426
207	0x3e733b57	0.23753105
208	0x3e9f73c1	0.31143
209	0x3d2d36b4	0.042288497
210	0x3e83770a	0.25676757
211	0x3ea85efb	0.32884964
212	0x3c2ebad2	0.010664659
213	0x3d082b4a	0.03324441
214	0x3e00c1d3	0.12573938
215	0x3e85b59f	0.26115128
216	0x3e149ffe	0.14514157
217	0xbec0baa7	-0.37642404
218	0x3dcaf300	0.0990963
219	0xbd90480c	-0.07044992
220	0x3eb09405	0.3448793
221	0xbe4eaed6	-0.20183882
222	0x3e5fc288	0.21851552
223	0x3e989d10	0.2980733
224	0x3e553f35	0.20824893
225	0x3ee9bef2	0.45653492
226	0x3ebb23f4	0.36550868
227	0xbc444ce7	-0.011981226
228	0x3df45841	0.119308956
229	0x3e156ec0	0.14593029
230	0x3b84e520	0.004055634
231	0x3e2b3c7e	0.16722295
232	0xbd47ee3e	-0.04881119
233	0xbbcfd606	-0.0063426523
234	0x3ef58b02	0.47957617
235	0x3e3a398e	0.18186018
236	0x3d69659e	0.056981675
237	0xbac8a673	-0.0015308395
238	0x3ebc1bb0	0.36739874
239	0x3eba1164	0.36341393
240	0x3dc9626c	0.098332256
241	0xbefde3d4	-0.49587882
242	0x3e6c3410	0.23066735
243	0x3e2636c1	0.16231824
244	0x3e9ddbb0	0.3083167
245	0xbe818977	-0.2530019
246	0x3e923eba	0.28563482
247	0x3d97c0c5	0.07409815
248	0x3ef0d001	0.47033694
249	0x3e8a9c37	0.27072307
250	0x3dd2db5b	0.10295745
251	0x3eb111e4	0.34583962
252	0x3ec348f4	0.38141596
253	0x3dee2de8	0.1162985
254	0x3d20ff88	0.039306194
255	0x3d853791	0.06504739

bias f4 [24]
0	0x3ec65ff1	0.38745072
1	0x3ef232e9	0.47304466
2	0x3e82fa44	0.25581563
3	0x3e43528d	0.1907446
4	0x3eee9c31	0.4660354
5	0x3f0ecaf8	0.55778456
6	0x3e6495fc	0.2232284
7	0x3eefcfe8	0.46838307
8	0x3eefb20b	0.46815524
9	0x3eee027e	0.46486276
10	0x3ed2a4a1	0.41141227
11	0x3ec31d37	0.38108227
12	0x3e80babd	0.2514247
13	0x3edd8bcd	0.43270722
14	0x3e927c7d	0.28610602
15	0xbe3e9177	-0.18610178
16	0x3eaa13d6	0.3321826
17	0x3e7f76a4	0.24947602
18	0x3ecd9bd2	0.40157944
19	0x3f10839b	0.56450814
20	0x3f13e7d7	0.57775635
21	0x3e9c0713	0.30474147
22	0x3f07bd87	0.5302357
23	0x3f162aab	0.58658856

weight f4 [24, 24]
0	0x3b161080	0.0022898018
1	0x3db05e74	0.086117655
2	0x3dec8c40	0.11550188
3	0x3e1feefe	0.15618512
4	0x3ddfaf74	0.10922137
5	0x3db270e4	0.087129384
6	0xbd9eab4a	-0.077475145
7	0xbde9139f	-0.113806956
8	0xbdc63b31	-0.096792586
9	0x3e2bfb12	0.16794994
10	0xbd4a81cc	-0.04944019
11	0x3bef3c00	0.0073008537
12	0xbe42ee8f	-0.19036315
13	0xbc148e60	-0.009067148
14	0xbd6bdc98	-0.05758342
15	0xbe06dea6	-0.13170871
16	0x3e21e176	0.15808663
17	0xbe293a40	-0.16526127
18	0xbcef09c8	-0.029179469
19	0xbc6d20d0	-0.014473155
20	0xbe3d3abd	-0.18479438
21	0x3dfcc1b4	0.123416334
22	0xbd85046a	-0.064949825
23	0x3dbbce74	0.09170237
24	0x3ebab56e	0.36466545
25	0x3f4d930a	0.8030249
26	0x3e9d574c	0.30730665
27	0x3ebfc0cf	0.3745179
28	0x3ec91019	0.39270094
29	0x3e8aaa9a	0.27083284
30	0x3e57a32e	0.21058342
31	0x3e49c3bd	0.19703574
32	0x3e7e0147	0.24805175
33	0x3eb9ac0d	0.36264077
34	0x3d6c3081	0.057663444
35	0x3ec3f7d4	0.38275015
36	0x3e76e491	0.24110629
37	0x3d2da9dd	0.042398322
38	0x3e963b71	0.29342225
39	0x3e10bdc5	0.14134891
40	0x3ebf8f1a	0.37413865
41	0x3ebe6790	0.37188387
42	0x3e8bc821	0.27301124
43	0x3db559c7	0.08855014
44	0x3e818d61	0.25303176
45	0x3ec4ccc5	0.38437477
46	0x3e03e697	0.12880932
47	0x3ebb712d	0.36609784
48	0x3ea772a0	0.3270464
49	0x3f0a7bed	0.54095346
50	0x3e789591	0.24275805
51	0x3e98fd91	0.29880956
52	0x3dcd137d	0.10013483
53	0x3ec35912	0.38153893
54	0x3ed343d1	0.41262677
55	0x3eccd6fe	0.40007776
56	0x3ee72f74	0.4515339
57	0x3ea4cae7	0.32186052
58	0x3e0d9811	0.1382754
59	0x3e8e71da	0.27821237
60	0x3e40e2cd	0.18836518
61	0x3eaa5ed7	0.33275482
62	0x3ed917ec	0.42401063
63	0xbdc22be6	-0.09481029
64	0x3ea4f146	0.32215327
65	0x3ee26046	0.44214076
66	0x3d953d30	0.07287061
67	0x3e7cbfda	0.2468256
68	0x3ef5227c	0.47877872
69	0x3ece6753	0.40313205
70	0x3e9ef70c	0.31047857
71	0x3e5d3c9c	0.21605152
72	0x3e83878c	0.25689352
73	0x3ebfa78d	0.3743252
74	0x3d363818	0.04448709
75	0x3c7ba6fd	0.015359637
76	0x3edc4db3	0.4302803
77	0x3ecfebc8	0.40609574
78	0x3eb22752	0.34795624
79	0x3e6901ef	0.22754644
80	0x3ed5a977	0.41730854
81	0x3e8bf065	0.27331844
82	0x3ed71346	0.42006892
83	0x3e8457bd	0.2584819
84	0x3e15c2e4	0.14625126
85	0x3e48d7e4	0.19613606
86	0x3e4d2b3e	0.20036027
87	0xbe2dc0a4	-0.16968018
88	0x3eb97d69	0.36228493
89	0x3e37657a	0.17909804
90	0x3ea123ed	0.31472722
91	0x3ece5ae2	0.40303713
92	0x3e7876bc	0.24264044
93	0x3eb41f95	0.35180345
94	0x3e9129a7	0.2835209
95	0x3edea95e	0.43488592
96	0xbe15a304	-0.14612967
97	0xbcc0aed5	-0.023520866
98	0xbd8b4e36	-0.06802027
99	0x3e338c55	0.17534001
100	0xbe47ee3a	-0.1952447
101	0xbe06a307	-0.13148127
102	0x3c624383	0.013810041
103	0x3e27cd42	0.16386893
104	0x3df6afad	0.12045226
105	0xbe439858	-0.19101083
106	0xbe225299	-0.15851821
107	0x3e44f877	0.19235407
108	0x3c9ac8a8	0.018894508
109	0xbe416b4b	-0.18888585
110	0xbd83b4a4	-0.06430939
111	0x3db6c388	0.089240134
112	0xbd2ed548	-0.04268387
113	0xbe208e81	-0.15679361
114	0xbe10bc55	-0.14134343
115	0xbdff858c	-0.12476644
116	0xbc02ff90	-0.007995501
117	0x3d84b589	0.064799376
118	0x3da850f9	0.08218569
119	0xbdeee640	-0.116650105
120	0x3e55c0f1	0.20874383
121	0x3eed9a53	0.46406803
122	0x3ed5d1a8	0.41761518
123	0x3eda5ae4	0.4264747
124	0x3edb67e6	0.42852706
125	0x3ea4426b	0.32081923
126	0x3e5284eb	0.20558517
127	0x3e85af0b	0.2611011
128	0x3e9c9f00	0.30590057
129	0x3ddb38cd	0.10704193
130	0x3e8cf552	0.27530915
131	0x3d9dbf24	0.07702473
132	0x3cef7582	0.029230837
133	0x3e734926	0.23758373
134	0x3e22842c	0.15870732
135	0xbdf09b3d	-0.11748359
136	0x3ea448b8	0.3208673
137	0x3e73038b	0.2373182
138	0x3e955af0	0.29170942
139	0x3e1c4b31	0.15263058
140	0x3d679852	0.05654175
141	0x3e7e73c5	0.2484885
142	0x3e1a0468	0.15040743
143	0x3e532f2d	0.20623465
144	0x3edb632a	0.42849094
145	0x3f2359d7	0.6380896
146	0x3eb8484e	0.35992664
147	0x3e332488	0.17494404
148	0x3da082ec	0.07837471
149	0x3e978593	0.29594097
150	0x3e11f505	0.14253624
151	0x3ea05d11	0.31321004
152	0x3db258a3	0.08708312
153	0x3efb1811	0.490418
154	0x3e0d7e00	0.13817596
155	0x3ee2e69b	0.44316563
156	0x3ec9268d	0.39287224
157	0x3ed71297	0.4200637
158	0x3ebfd6a1	0.37468436
159	0x3d71d201	0.059038166
160	0x3e9a4d1b	0.30136952
161	0x3e744c25	0.23857172
162	0x3e3ed2f3	0.18635158
163	0x3dc886eb	0.097913586
164	0x3eeca2f4	0.46218073
165	0x3e8cb147	0.27479002
166	0x3eb3bae3	0.3510352
167	0x3ea1886e	0.315494
168	0x3dd806dd	0.10548184
169	0xbeb434e6	-0.35196608
170	0xbe3e8233	-0.18604355
171	0x3e3247b9	0.17410173
172	0x3da59407	0.080848746
173	0x3e069620	0.13143206
174	0xbe19412a	-0.14966264
175	0x3cd1d465	0.025613973
176	0xbe2ce9b4	-0.16886026
177	0xbd1945ff	-0.03742027
178	0x3d1924cd	0.03738861
179	0xbe01c292	-0.12671879
180	0xbe3780db	-0.17920248
181	0x3c84daf6	0.01621769
182	0x3e8ef362	0.2792006
183	0x3e3c6078	0.18396175
184	0xbe226003	-0.15856938
185	0x3cb71bb2	0.022352073
186	0xbe47f265	-0.1952606
187	0xbe1336c1	-0.14376356
188	0x3bdd75c6	0.0067584245
189	0x3e8469e0	0.25862026
190	0x3d332726	0.043738507
191	0x3d29c16a	0.04144422
192	0x3ee4bdcb	0.4467605
193	0x3f1b013e	0.6054877
194	0x3ec8fd19	0.39255598
195	0x3ea6f141	0.32605937
196	0x3ec91b5c	0.39278686
197	0x3e85d228	0.261369
198	0x3db82cd6	0.08992927
199	0x3d9e59b6	0.07731955
200	0x3de7397b	0.112902604
201	0x3eec8b5a	0.46200067
202	0x3ebaadb7	0.3646066
203	0x3e9b17a4	0.30291474
204	0x3d5df032	0.054184146
205	0x3d9cb49f	0.07651638
206	0x3ecb40d8	0.3969791
207	0xbc5de72b	-0.013543884
208	0x3db0826d	0.08618627
209	0x3e304667	0.17214356
210	0x3e2eb12e	0.17059776
211	0x3e84ca42	0.2593556
212	0x3eb03f9f	0.3442354
213	0x3ea0f167	0.31434175
214	0x3d8ecf54	0.069731385
215	0x3e8dba15	0.27681032
216	0xbe01c16e	-0.12671444
217	0x3de425fb	0.11140057
218	0x3d9f5bf4	0.077812105
219	0x3db29b8a	0.08721073
220	0x3e208b99	0.15678252
221	0x3d9780fa	0.07397647
222	0xbe69b787	-0.22823916
223	0x3cb94bf6	0.022619229
224	0xbe2c45d9	-0.1682352
225	0x3acfb991	0.001584815
226	0xbcbaf47a	-0.022821654
227	0x3e357b27	0.1772276
228	0xbe28f152	-0.16498306
229	0xbe67d2b2	-0.22638968
230	0xbda6a970	-0.081377864
231	0x3d06bb4c	0.032893464
232	0x3dfdfdbc	0.124019116
233	0x3e116398	0.14198148
234	0x3e044fe5	0.12921102
235	0x3d130aac	0.03589885
236	0xbda50f71	-0.08059586
237	0xbd8edd85	-0.06975845
238	0xbe0e9963	-0.139257
239	0x3c6cff1c	0.01446512
240	0x3e0412dd	0.12897821
241	0x3f2e9967	0.68202823
242	0x3ecfe1dc	0.40602005
243	0x3eca15ab	0.39469656
244	0x3cfdb99d	0.030972296
245	0x3ed583f1	0.41702226
246	0x3e10c2e4	0.14136845
247	0x3e867e6c	0.26268327
248	0x3edadca6	0.42746466
249	0x3edcf2df	0.43154046
250	0x3e536d2e	0.20647117
251	0x3ec3b546	0.38224238
252	0x3d2186aa	0.039435066
253	0x3ed48ea6	0.41515082
254	0x3ee31048	0.4434836
255	0xb992b224	-0.00027980015

bias f4 [24]
0	0xbe32b8c4	-0.17453295
1	0x3e8679f6	0.26264924
2	0x3ea3b03f	0.31970403
3	0x3ea580b9	0.3232477
4	0xbd81c636	-0.06336634
5	0x3e732d76	0.2374781
6	0x3e946f26	0.2899105
7	0xbd1b285e	-0.037880294
8	0x3f06e8a7	0.5269875
9	0xbd92e881	-0.07173253
10	0x3f03b7cb	0.5145232
11	0xbe28f6c0	-0.16500378
12	0x3df1c4f4	0.11805144
13	0xbe397efd	-0.18114848
14	0xbe511d16	-0.20421252
15	0xbbe5c7c1	-0.007012338
16	0x3e9559f2	0.29170185
17	0x3f050593	0.5196163
18	0x3e01a823	0.12661795
19	0x3e08f2c4	0.13373858
20	0x3e9ec874	0.3101231
21	0x3eb08153	0.34473667
22	0xbe13d589	-0.14436926
23	0x3e6b2e47	0.22966872

weight f4 [1, 24]
0	0xbdb0e870	-0.08638084
1	0x3eb89c37	0.36056682
2	0x3ea86e2e	0.3289656
3	0x3ecdb579	0.40177515
4	0x3ba5a71a	0.0050553204
5	0x3ec0cfbc	0.3765849
6	0x3eaa49e4	0.332595
7	0xbecc2c56	-0.39877576
8	0x3e8da4aa	0.2766469
9	0xbe244a60	-0.16043997
10	0x3e91b92b	0.28461584
11	0xbd8955b2	-0.06705798
12	0x3e3981ab	0.1811587
13	0xbd78de31	-0.060758773
14	0xbd054683	-0.03253795
15	0xbe042734	-0.1290558
16	0x3e9bb214	0.304093
17	0x3e8da8ce	0.2766785
18	0xbcbd661a	-0.023119975
19	0x3ee94599	0.4556091
20	0x3ed92b09	0.42415646
21	0x3eb3119e	0.34974378
22	0xbd699b68	-0.057032973
23	0x3e999748	0.2999823

train_mean f4 [80, 11]
0	0x44209cf1	642.4522
1	0x44c6818f	1588.0487
2	0x44af989c	1404.769
3	0x440a710b	553.7663
4	0x45154134	2388.0752
5	0x460d7a91	9054.642
6	0x45fe3a7d	8135.311
7	0x4106cece	8.425489
8	0x43c43d80	392.48047
9	0x421b9546	38.895775
10	0x41bab447	23.338026
11	0x44209d54	642.45825
12	0x44c681af	1588.0526
13	0x44af9a70	1404.8262
14	0x440a70bd	553.76154
15	0x45154136	2388.0757
16	0x460d7a95	9054.6455
17	0x45fe3a7b	8135.31
18	0x4106cfb3	8.425708
19	0x43c43dd2	392.48297
20	0x421b937e	38.894035
21	0x41bab37e	23.337643
22	0x44209d72	642.4601
23	0x44c68236	1588.0691
24	0x44af9ccb	1404.8998
25	0x440a707b	553.7575
26	0x45154138	2388.0762
27	0x460d7aa5	9054.661
28	0x45fe3a45	8135.2837
29	0x4106d060	8.425873
30	0x43c43e4e	392.48676
31	0x421b92a8	38.89322
32	0x41bab224	23.336983
33	0x44209dab	642.46356
34	0x44c682cd	1588.0875
35	0x44af9e19	1404.9406
36	0x440a704c	553.75464
37	0x4515413a	2388.0767
38	0x460d7aa7	9054.663
39	0x45fe3a37	8135.277
40	0x4106d161	8.426118
41	0x43c4403e	392.5019
42	0x421b9175	38.892048
43	0x41bab047	23.336073
44	0x44209da1	642.46295
45	0x44c6847c	1588.1401
46	0x44af9f00	1404.9688
47	0x440a700a	553.7506
48	0x4515413a	2388.0767
49	0x460d7a8d	9054.638
50	0x45fe3a1a	8135.2627
51	0x4106d208	8.426277
52	0x43c441db	392.5145
53	0x421b9080	38.891113
54	0x41bab036	23.33604
55	0x44209dbe	642.4647
56	0x44c68529	1588.1613
57	0x44afa08a	1405.0168
58	0x440a6fcf	553.747
59	0x4515413c	2388.0771
60	0x460d7a9f	9054.655
61	0x45fe39f8	8135.246
62	0x4106d30f	8.426528
63	0x43c4422e	392.51703
64	0x421b8f88	38.890167
65	0x41baaec0	23.335327
66	0x44209e15	642.47003
67	0x44c68672	1588.2014
68	0x44afa203	1405.0629
69	0x440a6f81	553.74225
70	0x4515413d	2388.0774
71	0x460d7aa7	9054.663
72	0x45fe39cc	8135.2246
73	0x4106d3f4	8.426746
74	0x43c44326	392.5246
75	0x421b8ead	38.88933
76	0x41baadbf	23.334837
77	0x44209e48	642.47314
78	0x44c68794	1588.2368
79	0x44afa37b	1405.1088
80	0x440a6f2a	553.73694
81	0x4515413f	2388.078
82	0x460d7a97	9054.647
83	0x45fe39c9	8135.223
84	0x4106d45e	8.426847
85	0x43c44516	392.53973
86	0x421b8e4b	38.888958
87	0x41baaca7	23.334303
88	0x44209e86	642.4769
89	0x44c68898	1588.2686
90	0x44afa5ba	1405.179
91	0x440a6ece	553.7313
92	0x45154141	2388.0784
93	0x460d7abb	9054.683
94	0x45fe39d3	8135.228
95	0x4106d51a	8.427027
96	0x43c445e4	392.54602
97	0x421b8d3c	38.887924
98	0x41baab02	23.3335
99	0x44209eb8	642.48
100	0x44c68967	1588.2938
101	0x44afa694	1405.2056
102	0x440a6e94	553.7278
103	0x45154141	2388.0784
104	0x460d7abb	9054.683
105	0x45fe399f	8135.2026
106	0x4106d598	8.427147
107	0x43c44705	392.55484
108	0x421b8c6c	38.88713
109	0x41baaa41	23.333132
110	0x44209ee2	642.48254
111	0x44c68a2b	1588.3177
112	0x44afa88f	1405.2675
113	0x440a6e24	553.72095
114	0x45154142	2388.0786
115	0x460d7ab5	9054.677
116	0x45fe39cc	8135.2246
117	0x4106d5ed	8.427228
118	0x43c447fd	392.5624
119	0x421b8bde	38.88659
120	0x41baa8de	23.332455
121	0x44209f2c	642.48706
122	0x44c68ba6	1588.364
123	0x44afab52	1405.3538
124	0x440a6dab	553.71356
125	0x45154143	2388.0789
126	0x460d7a9e	9054.654
127	0x45fe3992	8135.1963
128	0x4106d628	8.427284
129	0x43c448a3	392.56747
130	0x421b8b12	38.88581
131	0x41baa7cf	23.331938
132	0x44209f50	642.48926
133	0x44c68c6b	1588.3881
134	0x44afad55	1405.4166
135	0x440a6d4d	553.7078
136	0x45154144	2388.079
137	0x460d7ab0	9054.672
138	0x45fe3964	8135.174
139	0x4106d6ea	8.427469
140	0x43c44a17	392.57883
141	0x421b8a43	38.88502
142	0x41baa6a2	23.331364
143	0x44209f7a	642.4918
144	0x44c68db6	1588.4285
145	0x44afaeee	1405.4666
146	0x440a6d00	553.7031
147	0x45154145	2388.0793
148	0x460d7aac	9054.668
149	0x45fe393a	8135.1533
150	0x4106d7c3	8.427676
151	0x43c44b8a	392.59015
152	0x421b8958	38.884125
153	0x41baa4cf	23.330473
154	0x44209fbd	642.4959
155	0x44c68ed6	1588.4636
156	0x44afb0c4	1405.5239
157	0x440a6c8b	553.696
158	0x45154148	2388.08
159	0x460d7aaa	9054.666
160	0x45fe3907	8135.1284
161	0x4106d8a7	8.427894
162	0x43c44cfe	392.6015
163	0x421b882b	38.882977
164	0x41baa3de	23.330013
165	0x44209fe2	642.49817
166	0x44c68fd9	1588.4952
167	0x44afb205	1405.5631
168	0x440a6c4c	553.69214
169	0x4515414a	2388.0806
170	0x460d7ab3	9054.675
171	0x45fe38f4	8135.119
172	0x4106d9c3	8.4281645
173	0x43c44e20	392.61035
174	0x421b8821	38.88294
175	0x41baa30c	23.329613
176	0x4420a018	642.50146
177	0x44c69114	1588.5337
178	0x44afb34d	1405.6031
179	0x440a6bd9	553.6851
180	0x4515414c	2388.081
181	0x460d7ac4	9054.691
182	0x45fe38c0	8135.0938
183	0x4106db38	8.42852
184	0x43c44f6a	392.62042
185	0x421b86d6	38.881676
186	0x41baa174	23.328835
187	0x4420a060	642.50586
188	0x44c69243	1588.5707
189	0x44afb50b	1405.6576
190	0x440a6b57	553.6772
191	0x4515414e	2388.0815
192	0x460d7abb	9054.683
193	0x45fe3898	8135.074
194	0x4106dbc1	8.428651
195	0x43c45183	392.6368
196	0x421b85d0	38.880676
197	0x41ba9fa0	23.327942
198	0x4420a096	642.50916
199	0x44c69264	1588.5747
200	0x44afb72b	1405.724
201	0x440a6af1	553.67096
202	0x45154151	2388.0823
203	0x460d7abc	9054.684
204	0x45fe3881	8135.063
205	0x4106dc6e	8.428816
206	0x43c45229	392.64188
207	0x421b84bf	38.879635
208	0x41ba9f1d	23.327692
209	0x4420a0c9	642.51227
210	0x44c69455	1588.6354
211	0x44afb98a	1405.7981
212	0x440a6aa3	553.6662
213	0x45154153	2388.0828
214	0x460d7acd	9054.7
215	0x45fe3831	8135.024
216	0x4106ddd7	8.42916
217	0x43c45321	392.64944
218	0x421b8328	38.878082
219	0x41ba9db6	23.327007
220	0x4420a0ff	642.51556
221	0x44c694c7	1588.6493
222	0x44afbb1b	1405.847
223	0x440a6a3c	553.6599
224	0x45154154	2388.083
225	0x460d7adf	9054.718
226	0x45fe3801	8135.0005
227	0x4106def0	8.429428
228	0x43c454be	392.66205
229	0x421b8135	38.87618
230	0x41ba9cd5	23.326578
231	0x4420a11a	642.5172
232	0x44c696b8	1588.71
233	0x44afbc92	1405.8928
234	0x440a69d0	553.6533
235	0x45154156	2388.0835
236	0x460d7afe	9054.748
237	0x45fe37cb	8134.974
238	0x4106dfd4	8.429646
239	0x43c4572a	392.68097
240	0x421b8041	38.875248
241	0x41ba9be0	23.32611
242	0x4420a124	642.5178
243	0x44c697fb	1588.7494
244	0x44afbe9c	1405.9565
245	0x440a6981	553.6485
246	0x45154158	2388.084
247	0x460d7b0a	9054.76
248	0x45fe37b9	8134.9653
249	0x4106e061	8.42978
250	0x43c458c7	392.69357
251	0x421b7e92	38.873604
252	0x41ba9aaa	23.32552
253	0x4420a157	642.52094
254	0x44c69a4e	1588.822
255	0x44afc14c	1406.0405

train_std f4 [80, 11]
0	0x3ec7eb94	0.3904692
1	0x40981044	4.7519855
2	0x40d2a5df	6.582748
3	0x3f272563	0.6529142
4	0x3d7332e3	0.0593747
5	0x410168ec	8.088116
6	0x4101b894	8.107563
7	0x3ce7b2d9	0.028283523
8	0x3f9858cd	1.19021
9	0x3e09eb98	0.13468778
10	0x3daa1e73	0.08306589
11	0x3ec80c9d	0.39072123
12	0x40971d64	4.7223377
13	0x40d2b59c	6.584669
14	0x3f27585a	0.6536919
15	0x3d73d156	0.05952581
16	0x41014691	8.079728
17	0x410172c1	8.090516
18	0x3ce82f01	0.028342726
19	0x3f98e4de	1.1944845
20	0x3e0a2ea1	0.1349435
21	0x3daad6c6	0.08341746
22	0x3ec823ae	0.3908972
23	0x4097a59b	4.7389655
24	0x40d25314	6.5726414
25	0x3f28102c	0.65649676
26	0x3d741f21	0.0596
27	0x41008895	8.033345
28	0x4101bc51	8.108476
29	0x3ce819dc	0.028332643
30	0x3f99090f	1.195589
31	0x3e0aaad4	0.13541728
32	0x3dab8271	0.08374489
33	0x3ec7c87e	0.3902015
34	0x40984b6c	4.759207
35	0x40d29cba	6.5816317
36	0x3f27f97e	0.6561507
37	0x3d73ab3d	0.059489477
38	0x4100b60c	8.044445
39	0x4101842f	8.094771
40	0x3ce95147	0.028481139
41	0x3f9880c2	1.1914294
42	0x3e0b1bdd	0.13584848
43	0x3dab5837	0.08366435
44	0x3ec7a5f2	0.38993794
45	0x40989c00	4.769043
46	0x40d269e0	6.575424
47	0x3f2832de	0.6570262
48	0x3d741087	0.059586074
49	0x41008bcc	8.03413
50	0x41016e17	8.089377
51	0x3ce98b29	0.02850874
52	0x3f992b2c	1.19663
53	0x3e0b8ee3	0.13628726
54	0x3dab5f5f	0.083678
55	0x3ec7ee71	0.39049104
56	0x4098a1ae	4.7697363
57	0x40d2478d	6.571234
58	0x3f289714	0.65855527
59	0x3d73dbb1	0.059535686
60	0x41003a8e	8.014296
61	0x41014142	8.078432
62	0x3cea7e01	0.028624536
63	0x3f99b424	1.20081
64	0x3e0bf9b2	0.1366947
65	0x3dabcb8b	0.08388432
66	0x3ec89972	0.3917957
67	0x40992d2b	4.7867637
68	0x40d2689c	6.5752697
69	0x3f2978ae	0.6619977
70	0x3d740e18	0.059583753
71	0x410070bf	8.027526
72	0x4101716d	8.090192
73	0x3ceab0e5	0.028648803
74	0x3f998d5e	1.1996267
75	0x3e0bec42	0.13664344
76	0x3dab3bcb	0.08361014
77	0x3ec8cc5c	0.39218414
78	0x40991b4d	4.7845826
79	0x40d241d9	6.570538
80	0x3f298241	0.66214377
81	0x3d743ce6	0.05962839
82	0x41005e80	8.023071
83	0x4101ae93	8.105121
84	0x3cea891c	0.028629832
85	0x3f9a9319	1.2076141
86	0x3e0c3c77	0.1369494
87	0x3dab2624	0.08356884
88	0x3ec8d678	0.39226127
89	0x4099d310	4.8070145
90	0x40d2dc25	6.589373
91	0x3f2a064f	0.66415876
92	0x3d741fc4	0.059600607
93	0x41004783	8.017459
94	0x41017053	8.089923
95	0x3cec5dc9	0.028853314
96	0x3f9a6978	1.2063437
97	0x3e0c9886	0.13730058
98	0x3dac30d0	0.08407748
99	0x3ec89508	0.39176202
100	0x4099fff5	4.8124948
101	0x40d2ce20	6.5876617
102	0x3f2a17c3	0.6644251
103	0x3d73c41a	0.05951319
104	0x41006689	8.025033
105	0x41014d12	8.081316
106	0x3cecdf44	0.028915055
107	0x3f9a18af	1.2038783
108	0x3e0cf6e9	0.13766064
109	0x3dac2ed0	0.08407366
110	0x3ec9a2a9	0.39381912
111	0x40999cda	4.800397
112	0x40d2f842	6.592805
113	0x3f2a2430	0.6646147
114	0x3d73a50b	0.05948357
115	0x4100c4ad	8.048017
116	0x41011e29	8.069863
117	0x3ced922d	0.029000366
118	0x3f993dc9	1.197198
119	0x3e0d4a82	0.13797954
120	0x3dac3e77	0.08410352
121	0x3ec94e0e	0.39317364
122	0x409a27c6	4.817355
123	0x40d4595e	6.635909
124	0x3f2a7703	0.6658785
125	0x3d73c029	0.05950943
126	0x41016416	8.086935
127	0x41016597	8.087302
128	0x3cecc4bf	0.02890241
129	0x3f9979e1	1.199032
130	0x3e0e2315	0.1388057
131	0x3dac600b	0.08416756
132	0x3ec8491f	0.39118287
133	0x409ae88f	4.8408885
134	0x40d4cc99	6.6499753
135	0x3f2ade31	0.6674529
136	0x3d737b5a	0.05944381
137	0x4101b164	8.105808
138	0x41016d3d	8.0891695
139	0x3cec8956	0.02887408
140	0x3f996328	1.1983385
141	0x3e0d92f0	0.13825583
142	0x3dacf6c2	0.08445503
143	0x3ec78d1f	0.38974854
144	0x409a7bdc	4.8276196
145	0x40d5efa4	6.685503
146	0x3f2b2c06	0.6686405
147	0x3d73b559	0.05949912
148	0x4102084b	8.127025
149	0x41010d43	8.065738
150	0x3ced9088	0.028999582
151	0x3f99d2d9	1.2017471
152	0x3e0db3bc	0.13838094
153	0x3dae0be7	0.08498364
154	0x3ec7dc8a	0.39035445
155	0x409b4e8a	4.8533373
156	0x40d69300	6.7054443
157	0x3f2ae91e	0.6676196
158	0x3d73da89	0.059534583
159	0x4102b5a3	8.169345
160	0x4100d7d7	8.052695
161	0x3cedaca1	0.02901298
162	0x3f994da5	1.197682
163	0x3e0d4452	0.13795593
164	0x3dae3669	0.08506472
165	0x3ec88bdd	0.39169207
166	0x409bd656	4.869914
167	0x40d67eb8	6.7029686
168	0x3f2b3152	0.6687213
169	0x3d7523f2	0.059848733
170	0x4103129a	8.192041
171	0x4100ed80	8.057983
172	0x3cee01e5	0.029053638
173	0x3f993405	1.1969
174	0x3e0d275f	0.1378455
175	0x3daea1fa	0.08526988
176	0x3ec86b0c	0.3914417
177	0x409c7b18	4.890026
178	0x40d73a9e	6.7259054
179	0x3f2be19d	0.67141134
180	0x3d7600f4	0.060059503
181	0x41030510	8.188736
182	0x4100bff8	8.046867
183	0x3ceebb86	0.029142153
184	0x3f99593b	1.1980356
185	0x3e0d6fdd	0.13812204
186	0x3daf4599	0.085581966
187	0x3ec8d063	0.39221486
188	0x409b99ca	4.862523
189	0x40d7f101	6.7481694
190	0x3f2be70f	0.6714944
191	0x3d75ee13	0.0600415
192	0x4102fde2	8.186983
193	0x4100f74e	8.060377
194	0x3cef3c78	0.029203638
195	0x3f9a9a0e	1.2078264
196	0x3e0d54fe	0.13801953
197	0x3daf9772	0.08573808
198	0x3ec93f11	0.39305928
199	0x409b2af9	4.8489957
200	0x40d846d9	6.7586484
201	0x3f2cab71	0.674491
202	0x3d77296c	0.060342237
203	0x4102d56b	8.177104
204	0x41011feb	8.070292
205	0x3cf0184a	0.029308457
206	0x3f9aa936	1.2082889
207	0x3e0da032	0.13830641
208	0x3daf064b	0.08546122
209	0x3ec87952	0.3915506
210	0x409b4a25	4.852801
211	0x40d8f43b	6.7798133
212	0x3f2cfaa1	0.6756993
213	0x3d782f93	0.060592245
214	0x4102c190	8.172256
215	0x4101366f	8.075789
216	0x3cf02ed4	0.029319204
217	0x3f9af1f2	1.2105086
218	0x3e0e5601	0.13899995
219	0x3daf4d2f	0.085596435
220	0x3ec9912f	0.3936858
221	0x409b2567	4.8483157
222	0x40da13dc	6.8149242
223	0x3f2d9cf7	0.67817634
224	0x3d78d4fd	0.060749996
225	0x4102ee73	8.183215
226	0x410146ef	8.079818
227	0x3cf0e8ce	0.029407885
228	0x3f9b6770	1.2140942
229	0x3e0e7a09	0.1391374
230	0x3daf3db0	0.08556688
231	0x3ec9710e	0.39344066
232	0x409b1a1a	4.846936
233	0x40da4873	6.821344
234	0x3f2e6ef3	0.68138045
235	0x3d791bcd	0.06081753
236	0x4102b14d	8.168286
237	0x41017231	8.090379
238	0x3cf24e7a	0.029578436
239	0x3f9bba13	1.216616
240	0x3e0ed68b	0.13949029
241	0x3db02e27	0.08602553
242	0x3ec9b7cd	0.3939804
243	0x409ab9c2	4.8351755
244	0x40da1391	6.8148885
245	0x3f2f2663	0.6841795
246	0x3d7a2c66	0.061077498
247	0x41026809	8.150399
248	0x41016b41	8.088685
249	0x3cf2b2bd	0.029626245
250	0x3f9be065	1.2177855
251	0x3e0f17ab	0.13973872
252	0x3db06d86	0.0861464
253	0x3eca3516	0.39493626
254	0x409a60e3	4.824327
255	0x40dbcc78	6.8687096
